checkpoints/checkpoint.pth (torch_old, 28451 bytes, 6 tensors)

fc1.weight f4 [64, 37]
000000 a7 1e e6 be 2a be 11 3f f9 12 e0 be 79 28 ac be
       -0.4494526 0.5693079 -0.43764475 -0.33624628
000010 ef ba 8a 3e 8e 23 52 3e 94 ab 5c 3e 49 f4 c4 3c
       0.27095744 0.20521376 0.21549827 0.024042265
000020 4e f1 af 3c e2 4a 0a bf ed db a1 be 49 a6 28 be
       0.021477368 -0.5402051 -0.31613103 -0.16469683
000030 25 fd 1f 3e 60 c9 6a be f4 de 50 bf a3 83 4f be
       0.1562391 -0.22928381 -0.815902 -0.20265059
000040 cf 4f 8f 3e cb a8 6d 3e de e1 6f be 7c 49 04 bf
       0.27990577 0.2320892 -0.23426005 -0.5167463
000050 9f 13 c0 3e ea ae f9 3d 2a 00 f1 3c ea 87 b9 3d
       0.3751497 0.12191565 0.029419024 0.09059127
000060 b6 a8 83 be 6b 25 4d 3d ca 6b 70 3e e9 5e b1 3d
       -0.25714654 0.050084513 0.23478618 0.08660681
000070 0a c9 97 be 07 c6 19 bf 1f 89 a3 bc 80 69 c9 3e
       -0.29645568 -0.6006779 -0.019962845 0.39338303
000080 78 c0 24 bb 47 93 3b bf 96 a7 88 bf cd 98 04 be
       -0.0025139134 -0.732716 -1.0676143 -0.12948914
000090 bd 12 e6 bd 16 fa 2f 3d 8c d9 da bd bf f1 c8 3e
       -0.11234043 0.04296311 -0.10686025 0.39246938
0000a0 a8 9a 8b 3b 64 26 53 be 21 d2 e4 3d e7 39 cb be
       0.00426038 -0.20620114 0.111728914 -0.39692613
0000b0 df 12 0e bd 57 d1 b3 be 72 94 b1 3c c0 7c 1f 3d
       -0.034685966 -0.3512065 0.02167723 0.03893733
0000c0 22 22 16 3d 16 1f 98 bd 59 5b cf 3e ce 74 1c 3f
       0.036653645 -0.07427804 0.4049938 0.6111573
0000d0 b5 2a 36 3e a8 09 95 3d 2f 3e 8d 3e 76 13 38 be
       0.17789729 0.072772324 0.27586505 -0.17976174
0000e0 f7 ea cb bd fd 8d 8e be 26 eb 6a be 3d ae b6 3e
       -0.09956925 -0.27842703 -0.22941265 0.35679808
0000f0 7c a1 a2 be e8 4e 04 3f 3b 35 39 be c1 d6 9e bc
       -0.31763828 0.516829 -0.18086712 -0.019389512
000100 82 6f 83 3e 9d 42 99 3d 5b c1 a9 3e 6a 0e c6 be
       0.2567101 0.074834086 0.3315533 -0.38682872
000110 d2 ba 0b 3c 53 66 d3 3e f9 69 0c 3e 2c 4d aa 3e
       0.008528428 0.41289005 0.137123 0.33262002
000120 68 19 7f 3d 4a 1d 73 3e 72 2a a0 3e 48 0d 4a be
       0.06228009 0.23741642 0.31282383 -0.19731629
000130 5f 66 2d 3e 5a 9d 25 3c e5 8d 81 3d 98 99 75 3d
       0.16933583 0.010108316 0.06325892 0.05996093
000140 7c 7a 24 bf 1b 5c 9a 3e fa ad 54 bc 6d 05 32 be
       -0.64249396 0.30148396 -0.012980932 -0.17384882
000150 bb 3c 50 bd 7d 33 5a 3e b8 45 d2 3d 46 3e 55 be
       -0.050839167 0.21308704 0.10267204 -0.20824537
000160 ac 03 26 3f 45 29 d3 be 00 1a e9 3e 13 26 42 3e
       0.6484935 -0.41242424 0.4552765 0.18959837
000170 2f 27 05 be 8a 51 65 3f 93 bb 6b be e1 98 ad 3e
       -0.13003229 0.89577544 -0.23020773 0.339057
000180 83 5e 16 3e 37 f3 a3 be 59 aa 21 be ab 3e ed bd
       0.14684491 -0.32021496 -0.15787639 -0.115842186
000190 30 e0 b0 bc a5 3c 76 3e a5 27 f9 3c 70 15 c0 3d
       -0.021591276 0.24046572 0.030414412 0.09379089
0001a0 a3 56 e8 bd d3 a6 b7 bd 2c 14 0a be 55 b4 1a 3e
       -0.1134465 -0.08967366 -0.13484257 0.15107854
0001b0 02 40 cc be 14 fa 3a bc 68 27 82 bd 20 2a be be
       -0.39892584 -0.011412162 -0.063551724 -0.37141514
0001c0 16 39 b7 3d 1e fe bb 3e ce 80 18 3e 97 35 50 3e
       0.08946435 0.36717314 0.14892885 0.20332943
0001d0 6d 91 32 3e ad bb a4 3d 55 9a 05 bd 7a ad b3 be
       0.17438288 0.08043609 -0.032617886 -0.3509329
0001e0 af a6 45 bf e1 79 6f 3c 2f a7 a7 3e f9 a9 20 3d
       -0.77207464 0.014616461 0.32744738 0.0392246
0001f0 0b 29 28 be 16 ad da 3d 87 e5 bd 3d 87 a8 e0 3d
       -0.16421907 0.10677545 0.092722945 0.10969644
000200 30 e9 7f bd 8a 5a ee be eb 03 7b bb 4f 8a 4e be
       -0.062478244 -0.4655345 -0.0038301896 -0.20169948
000210 bd f7 4d bd 59 d5 5b 3e bc 9d 45 bd 8c f0 10 3e
       -0.05028509 0.21468104 -0.04824613 0.14154261
000220 44 e9 3a 3d 49 39 3f 3e c0 68 1a bd 3f 01 94 be
       0.045632616 0.18674196 -0.037697554 -0.289072
000230 38 a3 da 3d 4b b1 b6 3d c0 89 ee 3e a4 dc 3f 3e
       0.10675663 0.08920535 0.4658947 0.18736511
000240 9c 92 1f bf 57 b4 26 bf 3e 12 68 3e fe eb 7c bb
       -0.62333083 -0.65118927 0.22663209 -0.003859281
000250 31 90 75 bd f9 a7 99 be fa ff 31 bd 48 db 98 be
       -0.059951965 -0.30010965 -0.04345701 -0.29854798
000260 15 a3 02 3d 06 fb 97 3b 15 db 01 3f a3 f8 28 be
       0.03189381 0.0046380786 0.5072492 -0.16501097
000270 0d 12 4f 3d aa 7a 66 3e 2c 33 12 3e 71 18 58 be
       0.050554324 0.2250773 0.14277333 -0.21103074
000280 8a 93 30 3e 4f c3 0d 3d ae e2 95 be 33 80 73 be
       0.17243782 0.03461009 -0.29274505 -0.23779373
000290 b4 ad 76 3e 43 f1 ed 3c cb 7e ff be cd 23 5c 3e
       0.240897 0.029045707 -0.49901423 0.21498032
0002a0 63 3c 05 be bb 7e 76 be bb 0b dc 3e e8 15 12 bf
       -0.13011317 -0.24071781 0.429777 -0.57064676
0002b0 2f 85 15 be df 52 68 3e 15 fd 9d 3e ca 91 0e bf
       -0.14601587 0.22687863 0.3085715 -0.55691206
0002c0 bd 8f b7 be d0 e3 3a 3e d9 23 9c 3e ae 46 d4 bd
       -0.3585185 0.18250966 0.304961 -0.103650436
0002d0 c6 2e 55 be 91 32 46 3e 5f fa 8a 3e 33 fc 44 be
       -0.20818624 0.19355227 0.27144143 -0.19236831
0002e0 ea b1 5d 3e 05 c4 fc 3d 70 0a b5 3e 42 41 26 bf
       0.216499 0.12342075 0.35359526 -0.64943326
0002f0 80 36 4b be e8 39 0b 3c 6b e8 3a 3e c0 49 20 3d
       -0.19845009 0.008497693 0.18252723 0.039132833
000300 5c 5d 40 be e0 32 9a 3e b9 a6 3a 3e a9 3c 3b 3e
       -0.18785614 0.3011694 0.18227662 0.18284859
000310 d8 54 1b bf b7 75 93 be a7 f3 56 bd 14 5d 62 3e
       -0.60676336 -0.28800747 -0.05247846 0.22105819
000320 c8 fd 0d be bc f4 8c 3e bc 8d f3 bd 47 43 12 bf
       -0.13866341 0.27530468 -0.11892268 -0.5713391
000330 85 f5 84 bd ca 98 58 3e 29 6e fb be df 99 2b be
       -0.06492142 0.21152034 -0.49107483 -0.16757916
000340 be 3d 37 3e 60 76 fe be 4e 1b 8a 3e 16 a0 33 bf
       0.17894647 -0.49699688 0.26973957 -0.70166147
000350 69 56 a5 bd bc 0d 43 be c0 62 1c be e5 b9 87 bc
       -0.08073122 -0.19048208 -0.15272045 -0.016568134
000360 5d 9c 0b be d8 bb 0f bf 4d cf d1 3e 0a 75 4a bf
       -0.13633867 -0.56146 0.4097847 -0.7908484
000370 28 83 04 3d 52 4a 2d 3e ce ac 93 3d ed 46 40 3e
       0.032351643 0.16922882 0.07210694 0.18777056
000380 d3 7c 86 be 2d ba 2b 3c 2b a7 06 bd e3 f6 60 3e
       -0.26267108 0.0104813995 -0.032874268 0.2196918
000390 76 3c 76 be 27 28 a5 bd 14 74 e7 bd d5 74 f4 3e
       -0.24046502 -0.08064299 -0.11301437 0.47745386
0003a0 c6 1c 1d 3e 8c 30 cd 3e 2d 73 05 3d 0e e6 8e be
       0.15343007 0.400761 0.032580543 -0.27909893
0003b0 d6 0f 01 3d 1a 0d db be d2 57 79 3d 83 fc 8b 3e
       0.031509243 -0.42783433 0.060874768 0.2734109
0003c0 41 da d6 3e 9b 91 01 3f 67 8c 30 3e 9a 36 56 3e
       0.4196339 0.506128 0.17241059 0.20919266
0003d0 18 c7 83 be a5 6c f5 be 72 75 47 3f e7 56 91 ba
       -0.25737834 -0.47934452 0.7791358 -0.0011088521
0003e0 bf e0 a8 be 76 23 98 3e 05 2f 68 be f0 0e 30 3e
       -0.32983968 0.29714555 -0.22674187 0.17193198
0003f0 84 dc 9a 3e fb 8d 15 bf 00 a4 3c 3e 66 99 e4 be
       0.30246365 -0.5841977 0.18421936 -0.44648284

fc1.bias f4 [64]
000000 6f f1 90 3e 0f af 61 3d 75 65 28 bd b2 76 e0 3c
       0.283092 0.05509859 -0.041112382 0.027400348
000010 ce 8e 31 3e 2f 8f bc bd cb 63 f1 3c cf 58 90 3e
       0.17339632 -0.092069976 0.02946653 0.28192756
000020 9f 2a 39 3d 1b b8 fa bd 58 9c 42 3e 0a fc 62 3e
       0.045206662 -0.122421466 0.19004953 0.22166458
000030 49 97 6c 3e b1 3f 6a 3e 1f f3 1f bd 31 84 b0 3c
       0.23104586 0.22875859 -0.039050218 0.021547409
000040 67 33 e4 3d 44 d8 b5 3d a0 31 c4 3d ca 96 df bd
       0.11142617 0.0887914 0.09579778 -0.109174326
000050 00 00 91 bc a2 d0 99 3d 16 af f8 3d e7 04 ad 3b
       -0.017700195 0.07510497 0.1214277 0.0052801254
000060 da 49 0e be a0 07 ff 3d 12 cf 27 3d 22 8e 05 bd
       -0.1389536 0.12452626 0.040968962 -0.03260625
000070 ab c8 64 3e 36 46 52 3e fe c2 2b 3e d6 ca 95 bd
       0.22342174 0.20534596 0.16773602 -0.073140785
000080 cb 71 c2 3e 80 30 02 3e 7c f9 a4 3d 72 d2 3d 3e
       0.37977442 0.12713814 0.08055398 0.1853731
000090 71 92 80 3d db eb 94 3d ae c0 3c bd 31 6a f7 bd
       0.062779315 0.07271548 -0.04608219 -0.12080801
0000a0 52 99 f8 bd ee ad 4a 3d 20 c3 b8 bd f9 ae 91 3e
       -0.121386185 0.04948228 -0.09021592 0.28453806
0000b0 b3 70 60 3d 38 28 8c 3d 8d ed 34 3e 28 ec 34 bd
       0.05479498 0.068436086 0.17668743 -0.04417053
0000c0 4a e0 97 bc 00 0e 82 3d 75 ef e6 bd 20 95 d7 3d
       -0.018539567 0.063503265 -0.112761416 0.1052649
0000d0 79 a4 0a 3e 3b 5a bd bd db df 35 be 6e ac 6a 3d
       0.13539304 -0.09245726 -0.17761175 0.057293348
0000e0 8b f3 32 3e 46 50 96 3d b2 f2 3b be b3 74 da bd
       0.17475717 0.0733953 -0.183543 -0.1066679
0000f0 b4 45 39 3a 63 0f a4 3c 80 1e f2 3d 27 c3 d2 3d
       0.00070675765 0.020026868 0.11822224 0.102911286

fc2.weight f4 [64, 64]
000000 06 91 74 3f 82 de bf 3e 06 68 b0 3e b5 9a ce 3e
       0.9553379 0.37474447 0.34454364 0.40352407
000010 c4 24 15 3e f2 e0 ab 3e f9 0b 05 bf c0 78 cb 3e
       0.14564806 0.33570057 -0.51971394 0.39740562
000020 e7 b1 85 3e 30 11 41 3f 36 4f e1 bc 94 16 5c 3e
       0.2611229 0.7541685 -0.027503591 0.21492988
000030 32 48 61 be ec d3 00 3f 69 30 de 3d 9e 5c 98 be
       -0.22000197 0.5032337 0.10849077 -0.2975816
000040 fa 95 43 bf 4e c8 81 3d e7 99 58 3f f3 5e f0 3d
       -0.7640072 0.06337033 0.84609836 0.1173686
000050 be a0 8a 3e f4 a2 9b be 99 d3 87 3f 17 a2 47 bf
       0.27075762 -0.3039776 1.061145 -0.77981704
000060 3b ba 64 be 44 12 07 3e 85 67 7e 3e ef c5 31 be
       -0.22336666 0.13190562 0.24844177 -0.17360662
000070 db 0f ae be e8 3a 78 bf dd e2 21 3f 53 c1 15 bf
       -0.33996472 -0.96964884 0.6323679 -0.58498114
000080 a6 18 4f 3e 0b ab e6 be 08 a6 48 be f1 c5 bb be
       0.20224246 -0.4505237 -0.19594586 -0.36674455
000090 50 01 d0 3d e2 5c 70 3e 19 b6 5d 3c fe 40 42 be
       0.101565 0.23472932 0.013532185 -0.18970105
0000a0 c9 93 7a bd 0f 6b ba be 07 a1 35 bf c8 9a 32 be
       -0.061176095 -0.36409804 -0.70948833 -0.17441857
0000b0 cb ad bb 3e 0c be 3f 3e 92 5d b1 3c d5 c3 6d 3e
       0.3665603 0.18724841 0.021651063 0.23219235
0000c0 19 88 4d 3c be 61 a2 3d 01 93 dd bd e8 b9 9a be
       0.012544655 0.07928799 -0.108190544 -0.3021996
0000d0 4b 14 92 3d db 8d df bf 15 0a b2 be 47 ba 94 be
       0.07132777 -1.7465166 -0.34773317 -0.29048368
0000e0 2d 75 5a be 72 0a 01 bf b5 78 07 bf 79 1b 36 bf
       -0.21333762 -0.50406563 -0.5291856 -0.7113567
0000f0 85 b6 40 be c5 1b ad bb 21 ce 4c bf c4 b7 8b 3e
       -0.18819626 -0.0052828514 -0.8000203 0.2728864
000100 1a a1 00 3f 9e b9 b2 3e 5b 2e ab 3d 1b 60 03 3e
       0.5024582 0.3490724 0.08358451 0.1282963
000110 4e 77 42 3d 28 6a 09 3f 32 7e d5 be 19 c1 69 be
       0.04747706 0.53677607 -0.41697842 -0.22827567
000120 7f f1 2a 3d 26 ed 07 3f 20 e5 ec 3d ac 0d c6 3e
       0.041734215 0.53096235 0.115671396 0.38682306
000130 63 2d 8c be 71 3b 59 3e a5 8e d2 3e 68 36 d0 3d
       -0.27378377 0.21214081 0.41124454 0.10166627
000140 6e 4f 4d be b7 cb 11 3e f2 2f f2 3e 52 06 0b 3e
       -0.20049831 0.14237867 0.47302204 0.1357663
000150 04 0b 80 3e 12 b3 92 be 44 cf 57 3f dc 00 71 bf
       0.25008404 -0.28652245 0.8430064 -0.94141936
000160 e6 1d 75 3d 45 48 22 3e a8 a5 8c 3e e4 6d 0f bf
       0.059842966 0.15847881 0.27470136 -0.56027055
000170 e3 37 07 bf 8a 5c 0a bf 42 9f e5 3e 33 bb c2 be
       -0.5281965 -0.54047453 0.44848067 -0.38033447
000180 bd 88 7f 3d 85 72 83 3c 21 96 7c 3d 62 c2 bf bd
       0.062386263 0.016045818 0.06166661 -0.093632475
000190 4d 5c c2 3d c0 48 01 3e 9f 57 4b 3f 7a ea 13 3e
       0.09490261 0.12625408 0.79430574 0.14444914
0001a0 1b 09 4e 3e 1c 8e 55 bf 29 28 fe bf 9a 10 1d 3e
       0.20120661 -0.83419967 -1.9856006 0.15338364
0001b0 db 82 62 bc 66 3f 0a bb 4e 5d 8d bb b2 93 07 3e
       -0.013825144 -0.0021094917 -0.0043141013 0.13239935
0001c0 b1 88 e4 be 99 80 b2 3d f9 c5 b9 3e dc cf 75 be
       -0.44635537 0.08715934 0.36283854 -0.24005073
0001d0 d1 08 e7 bc 6a 9b 3f 3d ff a5 52 be be 18 a3 be
       -0.028202446 0.046779074 -0.20571135 -0.31854814
0001e0 2c 54 5a 3c 08 56 25 be 93 44 7c bd 26 ff 3d be
       0.013325732 -0.161461 -0.061588835 -0.18554363
0001f0 f4 48 a1 be 2b 56 8e 3c 29 09 c4 3d 62 64 f6 3d
       -0.3150097 0.017375072 0.0957206 0.12030865
000200 41 f1 36 3f 81 a4 2f 3e 66 c6 03 3e 56 23 06 3e
       0.71461874 0.17152597 0.12868652 0.13099417
000210 56 c8 9c 3d c9 41 05 3f 69 93 b0 be 6a d0 c2 3e
       0.076553985 0.52053505 -0.34487465 0.38049632
000220 a6 a4 5d 3e 19 66 fd 3e 08 fd b7 3d 52 7e 69 3e
       0.2164484 0.49491957 0.08983809 0.22802094
000230 b3 91 6d 3c 59 ce 04 3f 76 08 ff 3e 9c 7a af be
       0.014500069 0.5187736 0.49811143 -0.3427323
000240 41 88 2b bf 57 56 39 3e 24 a9 33 3f 86 51 42 3c
       -0.6700478 0.18099342 0.70179963 0.011860257
000250 5e 5b cf 3e cc a2 65 be 8f 63 5e 3f e1 f0 53 bf
       0.40499395 -0.22425383 0.86870664 -0.8278943
000260 7b 05 ab 3d 98 fe fb 3d e2 a3 88 3e 22 66 c5 be
       0.08350655 0.12304419 0.26687533 -0.38554484
000270 78 61 a6 be c6 2a 55 bf 25 bd a8 3e b7 0b a4 be
       -0.32496238 -0.8326839 0.32956806 -0.32040188
000280 e6 0e 1e 3e ea 43 5b be 4f a2 b4 be 59 6e d0 bd
       0.15435371 -0.21412626 -0.35280082 -0.10177297
000290 e4 53 8f 3e ea 4f 58 3e 76 63 1f 3f f3 28 82 3e
       0.2799369 0.21124235 0.6226114 0.25421867
0002a0 1e 76 96 3d 63 4e e9 be 0b 65 2b bf 52 43 c4 3d
       0.07346748 -0.45567617 -0.66951054 0.09583153
0002b0 d9 27 0b 3e 03 d4 4b 3e ee 28 47 3d 5b 92 62 3d
       0.1358942 0.19905095 0.048623018 0.055315357
0002c0 7d 97 da 3d 5a 1c c4 3d 50 5d 08 3e e5 10 c0 be
       0.10673425 0.0957572 0.13316846 -0.3751289
0002d0 08 1f 5f 3d 39 4c f7 bf a2 af 04 bf 85 1b 85 be
       0.054472953 -1.9320136 -0.51830494 -0.25997558
0002e0 71 41 bc 3d 09 27 08 bf e0 04 30 be 1f 60 0b bf
       0.091921695 -0.5318456 -0.1718936 -0.54443544
0002f0 5e bb 9c be 58 15 4b bd ea c0 bd be 2e 0b 97 3e
       -0.306117 -0.0495809 -0.37061244 0.29500717
000300 1e 62 d3 be 1f cc 12 be 6f 45 90 3f 9e e2 ec 3d
       -0.41285795 -0.14335679 1.127119 0.11566661
000310 bc fd f7 3d 45 6f 91 be 44 c6 e4 3e d5 09 d8 3e
       0.12108943 -0.28405204 0.44682515 0.42195
000320 41 65 15 3e 52 d2 d2 3e c5 ee 62 be 0a f9 cb be
       0.14589407 0.41176087 -0.22161396 -0.3983844
000330 4e ed 81 3e c6 8d b6 3e 79 cf ae bf 64 0b 9b 3e
       0.25376362 0.3565504 -1.3657066 0.30282128
000340 5d 2b 30 be 07 fa 48 bf 4e 73 19 bd d3 e5 47 bf
       -0.17204042 -0.7850651 -0.03746348 -0.7808506
000350 76 82 a5 3e 7b 43 6b be 48 65 13 3e 8a bf 32 3f
       0.32326096 -0.2297496 0.14394104 0.69823515
000360 d1 48 8b 3e 1c f4 bf 3d fe 03 b1 be 87 bc fd 3e
       0.27203992 0.09372732 -0.34573358 0.49557897
000370 93 37 aa bd 52 43 96 3d ab 88 e5 bd 93 ce 96 bf
       -0.08311381 0.07337059 -0.11207708 -1.1781791
000380 54 b9 c0 3d 9d 01 fc be 68 8c e1 3e a9 59 76 3e
       0.094103485 -0.4921998 0.44052434 0.2405764
000390 b6 b7 0f bf ce 7a 0d 3e 84 a5 29 be 10 fd ae 3e
       -0.56139696 0.13816378 -0.16567045 0.34177446
0003a0 9d a8 79 be 66 f1 f5 3d f9 03 ea bc 09 a4 4c 3e
       -0.24380727 0.12008934 -0.028566347 0.1998445
0003b0 bb 82 4f bf c0 e7 10 3f 7e 1c 60 bd c2 80 27 bf
       -0.81058854 0.5660362 -0.054714672 -0.65430844
0003c0 c0 df 92 be 6b 6d 7e be 2a 19 c9 3d 62 81 50 3d
       -0.28686333 -0.24846427 0.09819253 0.05090464
0003d0 db 5f 09 bf 30 8e e7 3e fc e6 0b bf fb 2c af 3e
       -0.5366189 0.45225668 -0.5464933 0.34214005
0003e0 dd f7 a5 bc 4a f0 b0 bc 14 a6 4c bd 88 3b 84 3e
       -0.020259792 -0.021598954 -0.049963072 0.2582667
0003f0 a6 11 72 bf d9 47 ee 3e 7f 3b 89 be 4e 74 51 bf
       -0.9455818 0.4653919 -0.26803204 -0.8181809

fc2.bias f4 [64]
000000 8d c1 27 3e cb 51 af 3d 32 b4 03 3e 66 7a 27 3e
       0.16382428 0.08560523 0.12861708 0.16355285
000010 be 74 7d 3e 49 be b2 3d 2e 3e fa bd 04 64 c5 3c
       0.24751565 0.087277 -0.12218891 0.024095543
000020 ab 49 da 3d 0f 6d 1f 3e 47 e9 8f bd d2 2c 82 3e
       0.10658582 0.15568946 -0.07026916 0.2542482
000030 22 e0 51 3e db b3 f0 3c 9e ec 60 3c 4a 95 12 3d
       0.20495656 0.029382637 0.013728289 0.035786904
000040 62 ad 42 bc d3 59 b2 bd c4 24 0f 3e 8e b0 b9 3d
       -0.011882158 -0.08708539 0.13978869 0.09066878
000050 d8 48 16 3e 52 fa 50 3e 7f bc d7 bd 6a 34 0b 3d
       0.14676225 0.2040799 -0.10534 0.033985533
000060 09 49 6d 3d 9a 1b f0 bd 8c 53 76 3e 58 e5 74 3d
       0.05793098 -0.117240146 0.24055308 0.05978903
000070 8a 2f b6 3c f4 61 44 3e cc 7e f8 3d 52 6f 5c 3d
       0.022239465 0.19177991 0.121335596 0.0538171
000080 eb 48 64 3c 3d 0b 3c bd 79 3a 05 3e 78 9b 12 3d
       0.013933401 -0.045909155 0.13010587 0.035792798
000090 38 63 06 bd 9b 44 e6 3d d5 28 66 3e 3f 85 e6 bd
       -0.032809466 0.11243554 0.22476514 -0.112558834
0000a0 7f 0a 13 3d 24 dc 31 3e 0d d6 f9 3d 62 be 06 3e
       0.03589868 0.17369133 0.1219903 0.13158563
0000b0 df f3 4a 3d a1 ca 17 bd fd 83 c5 3c c7 e3 28 be
       0.04954898 -0.037058476 0.024110788 -0.1649314
0000c0 06 aa 44 3e e8 4c a2 bd 51 34 21 be a4 e1 67 3e
       0.19205484 -0.07924825 -0.15742613 0.22644669
0000d0 3a 1d d2 bc 70 a1 28 3d ce 61 8c 3d 75 18 0b be
       -0.025648702 0.041169584 0.06854592 -0.13583548
0000e0 d7 78 29 be 40 b0 a0 bb 68 56 cf bd f8 2c cf bd
       -0.16550003 -0.004903823 -0.101239026 -0.10115999
0000f0 1e 4d 8a 3e 4e 5d 94 3e 16 2d 86 3e 63 b5 13 be
       0.2701196 0.28977436 0.26206273 -0.14424662

fc3.weight f4 [4, 64]
000000 20 41 6f 3f 17 21 61 3f 05 20 1f 3f 63 c1 4d bf
       0.9345875 0.87941116 0.6215823 -0.8037321
000010 02 42 48 3f 4e b9 0a bf 15 e3 de 3d 6a 3c 54 bf
       0.7822572 -0.54189 0.10883156 -0.82904685
000020 9a 8a 92 3f 48 d6 2a 3f 44 90 77 bf 9e 3a ee 3e
       1.1448548 0.6673322 -0.96704507 0.46529096
000030 c6 df 62 bf 05 28 63 3f 3c 4f d2 bf 6b 88 63 3f
       -0.886227 0.8873294 -1.643043 0.8888003
000040 f6 68 c2 bc b5 d7 89 3d 31 9d 3b bf 14 ad c8 3e
       -0.02373169 0.06730596 -0.7328673 0.39194548
000050 16 25 41 3f 6e ce d7 3e cd 18 41 bf 94 c2 97 3f
       0.75447214 0.4214968 -0.7542847 1.1856256
000060 30 09 47 bf b5 46 2d b9 92 b9 16 bf ed f4 9c bf
       -0.77748394 -0.00016524906 -0.5887691 -1.2262245
000070 70 63 2f 3f 04 3f 46 3f 55 62 88 bf ed a0 36 3f
       0.68511105 0.77439904 -1.0655009 0.71339303
000080 50 d8 45 bf 32 dd 86 3c b5 91 0a 3f f8 83 2e 3f
       -0.7728319 0.016462896 0.5412858 0.6817012
000090 ab ea 33 bf c4 79 71 be bd 04 10 3f 81 95 53 3f
       -0.7027995 -0.23581606 0.5625723 0.8265
0000a0 ae 83 83 3f 4b 6b 1b 3f 5e 7c bf 3e bb f5 98 3f
       1.027456 0.6071059 0.37399572 1.1949991
0000b0 77 48 2c bf a0 b5 3a bf 8d a7 fa 3e 26 ff bd 3d
       -0.6729807 -0.7293339 0.48955956 0.09277181
0000c0 01 aa 3c bf 2d db ab 3e da 9b 83 bd 15 10 21 3f
       -0.73696905 0.33565655 -0.06426211 0.62915164
0000d0 1f 13 71 3f 82 37 16 bf 87 75 08 3f 0a 5a ec bc
       0.941698 -0.5867845 0.5330433 -0.028851528
0000e0 13 02 1f bf df 0f 40 bf 89 5d b0 3e 03 a2 12 bc
       -0.6211254 -0.7502422 0.34446362 -0.008949759
0000f0 d5 0a 4d bf a4 da 19 3f 24 a7 08 bf 79 7b ae 3d
       -0.80094653 0.60099244 -0.53380036 0.08519644
000100 8d fe 6f 3f c7 d8 5e 3f e7 e1 1d 3f b6 c6 49 bf
       0.9374779 0.87049526 0.61672825 -0.78818834
000110 84 4f 49 3f 3c 38 08 bf 2d ac 07 3c cb 6e 56 bf
       0.78636956 -0.53210807 0.008280796 -0.83762807
000120 ca 10 94 3f 0a 32 2b 3f f6 ed 78 bf 08 23 ec 3e
       1.1567624 0.6687323 -0.972381 0.46120477
000130 24 9d 62 bf e4 cf 61 3f 58 bd d2 bf 6a a4 65 3f
       -0.8852103 0.8820784 -1.6464033 0.89704
000140 5a 19 eb bd 9e 99 19 3d 4c 08 3b bf a4 a2 c5 3e
       -0.11479445 0.037500016 -0.73059535 0.38600647
000150 0d 58 43 3f 14 10 d5 3e e3 08 3f bf 29 ca 97 3f
       0.7630623 0.4161383 -0.74622935 1.1858569
000160 66 83 48 bf 75 39 82 bc 5f 82 1a bf 30 52 9d bf
       -0.783255 -0.015896538 -0.6035518 -1.2290707
000170 62 1d 2f 3f 8a 0f 45 3f 35 6e 89 bf 0f a6 36 3f
       0.6840421 0.76976836 -1.0736758 0.71347135
000180 87 f7 44 bf ef a7 de 3b c6 88 0a 3f 6e 60 2d 3f
       -0.76940197 0.0067949216 0.5411495 0.67725265
000190 f4 25 35 bf 62 5f 71 be 68 ab 0d 3f dc f7 57 3f
       -0.70761037 -0.23571542 0.5533967 0.8436258
0001a0 76 2e 81 3f 30 96 1a 3f 98 13 c3 3e 32 3b 99 3f
       1.0092304 0.6038542 0.38100886 1.197119
0001b0 04 1a 2b bf 12 6f 3b bf 5c 15 03 3f 27 8f 6f bd
       -0.6683657 -0.73216355 0.51204467 -0.05848613
0001c0 8d 85 3d bf b8 af a4 3e 34 fc 97 bd 17 7f 1f 3f
       -0.7403191 0.32165313 -0.07421151 0.623033
0001d0 f3 6e 72 3f 1f 05 17 bf 0c 4d 0b 3f 9c 5f a7 ba
       0.94700545 -0.5899219 0.5441444 -0.0012769583
0001e0 02 2c 1f bf e2 ae 3c bf 19 96 9a 3e 72 de 5d be
       -0.62176526 -0.7370435 0.3019264 -0.21666887
0001f0 25 48 4b bf 67 70 1a 3f 09 0b 0b bf 4c 2c bc 3c
       -0.7940696 0.6032776 -0.54313713 0.022970341
000200 5b 67 6b 3f 86 04 58 3f 10 44 10 3f c2 89 51 bf
       0.9195458 0.843819 0.56353855 -0.81850827
000210 a0 f6 63 3f dc cf 09 bf 27 3b d9 3d 7b b2 54 bf
       0.89048195 -0.53832793 0.106069855 -0.8308484
000220 24 b1 8f 3f bd ad 54 3f 13 e8 74 bf 22 c4 ee 3e
       1.1225934 0.83077604 -0.9566662 0.46634012
000230 35 67 69 bf 95 dd 6e 3f 2d 1b d4 bf 1a 3c 63 3f
       -0.91173106 0.9330686 -1.6570793 0.8876358
000240 9c b1 00 3d 34 c0 31 bd 17 5a 29 bf 5c fc bd 3e
       0.03141938 -0.04339619 -0.6615309 0.37106597
000250 b7 25 47 3f 49 22 c0 3e 91 da 33 bf ef dd 98 3f
       0.77791923 0.37526157 -0.7025538 1.1942729
000260 40 55 46 bf 3a de f7 bc b2 a0 17 bf 6d e7 a1 bf
       -0.7747383 -0.030257333 -0.59229577 -1.264875
000270 15 64 2f 3f d3 cb 47 3f b5 8a 8a bf 9d 84 34 3f
       0.6851209 0.78045386 -1.082358 0.7051485
000280 2d fa 41 bf 8c 2e 38 3d 6e 93 0a 3f d6 0a 29 3f
       -0.7577236 0.044966266 0.5413121 0.6603216
000290 9c 3f 3d bf 3a cf 68 be 8d 23 17 3f 02 9c 4f 3f
       -0.73925185 -0.227353 0.5903862 0.81097424
0002a0 21 29 89 3f 9c 94 18 3f e3 62 c8 3e cd af 97 3f
       1.0715677 0.5960176 0.39137945 1.1850525
0002b0 44 1e 2f bf 8a b7 21 bf 14 86 fb 3e 7b 3e a0 3d
       -0.68405557 -0.63170683 0.4912573 0.07824417
0002c0 d1 33 41 bf ea 08 d2 3e 43 01 51 be 8d 7d 0f 3f
       -0.7546969 0.41022426 -0.20410638 0.5605095
0002d0 de d1 59 3f be 57 20 bf 9f d4 05 3f 0b 47 c4 3c
       0.85085857 -0.62633884 0.5227756 0.023959657
0002e0 73 04 20 bf a5 fe 3b bf 91 66 7c 3c 87 8c 17 3d
       -0.6250679 -0.7343543 0.015405313 0.03699925
0002f0 d2 99 5e bf a9 d6 1c 3f bf 09 f4 be 25 bd b7 bc
       -0.8695346 0.61265045 -0.47663686 -0.022429058
000300 38 e9 69 3f 59 ec 5c 3f 28 10 22 3f 22 ac 4d bf
       0.9137149 0.8629814 0.633059 -0.8034078
000310 e3 c0 4b 3f e0 4b 02 bf 33 56 6f bd 1c 60 57 bf
       0.79591197 -0.50897026 -0.058431815 -0.84131026
000320 1d 71 93 3f b7 7e 31 3f 5a c3 74 bf c0 09 f4 3e
       1.1518894 0.69333977 -0.9561058 0.4766369
000330 30 cb 64 bf c0 86 60 3f d9 c1 d3 bf 7e 8e 60 3f
       -0.8937254 0.8770561 -1.6543533 0.87717426
000340 72 70 f0 3d d1 79 f6 3c 9f a2 3f bf 5f 40 d3 3e
       0.11740197 0.030087383 -0.74857515 0.4126005
000350 8f e8 41 3f 06 19 c8 3e 81 1d 3f bf 3a 7e 98 3f
       0.7574548 0.3908159 -0.74654394 1.1913521
000360 94 84 48 bf 7e 4b 8a 3c 87 d3 18 bf 26 83 9e bf
       -0.783273 0.0168817 -0.59697765 -1.2383773
000370 65 9c 30 3f e6 67 46 3f 93 35 86 bf 20 f9 34 3f
       0.6898864 0.77502286 -1.04851 0.70692635
000380 5c 13 47 bf 45 51 e4 3c 75 3f 09 3f 75 16 2d 3f
       -0.77763915 0.027870784 0.5361245 0.6761239
000390 8a 93 3a bf 18 45 5e be dc c4 15 3f 4c 34 54 3f
       -0.72881377 -0.21706045 0.5850351 0.828923
0003a0 a6 b3 81 3f d9 ba 11 3f c5 93 be 3e 83 78 98 3f
       1.0132949 0.5692573 0.37222114 1.1911777
0003b0 78 c6 28 bf 93 d9 3f bf ab a1 ff 3e ad df 17 3b
       -0.6592784 -0.74941367 0.4992803 0.0023174093
0003c0 85 9d 3d bf b5 6c 9c 3e 74 91 17 3d 4d 1e 20 3f
       -0.7406848 0.30551687 0.03700395 0.62546235
0003d0 3d 9f 73 3f 9e 76 1d bf d6 88 10 3f 60 fe eb 3d
       0.95164853 -0.6150912 0.56458795 0.115231276
0003e0 c4 34 22 bf 6f 8b 3c bf 19 75 36 be 86 83 64 bd
       -0.63361764 -0.7365026 -0.17818107 -0.055789493
0003f0 11 df 48 bf 4a 9b 17 3f d6 77 06 bf 94 18 49 3c
       -0.7846537 0.5922133 -0.52526605 0.012273926

fc3.bias f4 [4]
000000 17 b4 20 be 13 21 1a be 3f 7b 10 be d6 f2 f4 bd
       -0.15693699 -0.1505168 -0.14109515 -0.1196038
