checkpoints/checkpoint.pth (torch_old, 173608 bytes, 6 tensors)

fc1.weight f4 [256, 37]
000000 4c 13 e7 3d ca 65 83 3e ff 4b 06 bf fc e5 1b bf
       0.112829775 0.25663596 -0.5245971 -0.60897803
000010 ce 6b 0f 3d 75 a1 7f 3e 20 b7 c8 bd df ad d2 3d
       0.03501492 0.24963935 -0.09800553 0.102870695
000020 2d 50 ad be 0f 44 e6 3d d5 15 84 be 3f a6 3a bd
       -0.33850232 0.1124345 -0.25797907 -0.0455687
000030 cd 7f c1 ba 00 38 e0 bd 0c 7c 14 be 69 b0 d0 3d
       -0.0014762819 -0.10948181 -0.14500445 0.101898976
000040 92 f0 00 be 87 0f 0c 3e e1 15 52 bd 0c ca 52 3e
       -0.1259177 0.13677798 -0.051290397 0.20584887
000050 25 ec 38 3e 97 6d 09 3e d7 3b b5 bd 1e ff 90 3d
       0.18058832 0.13420711 -0.08849304 0.0707991
000060 35 85 b2 3c 31 35 79 bc 35 38 31 3e 97 e9 81 3d
       0.021792034 -0.015210436 0.17306598 0.06343382
000070 a8 43 1d bf 41 e5 94 3d 50 6b d4 be 27 1d 54 3e
       -0.6143136 0.07270289 -0.41488123 0.20714246
000080 04 15 49 3e b1 e4 a5 bd 7a a5 9a be d7 ba b9 3c
       0.19636923 -0.0810026 -0.30204374 0.0226721
000090 d7 2c f0 bc 08 eb 7f bd a2 72 01 3e 2b 69 60 3e
       -0.029318256 -0.062480003 0.12641385 0.21915118
0000a0 8b 74 b4 b9 1c 87 24 be 9f e8 81 3e a8 37 30 bf
       -0.00034419107 -0.16067165 0.25372788 -0.68834925
0000b0 08 3a 3f be b7 c7 21 bf a5 1e cd bf ef 07 a0 3a
       -0.18674481 -0.63195366 -1.6024977 0.0012209396
0000c0 58 f6 5b be 0b 91 27 3e f2 ef 98 3e b0 65 2c 3e
       -0.21480691 0.16363923 0.29870564 0.16835666
0000d0 f5 c1 c2 bd 16 65 3e bd c1 58 8a 3e ec 2f 22 3e
       -0.095096506 -0.04648312 0.2702084 0.15838593
0000e0 c6 9b 05 be 85 26 45 3c be 1a f3 bd d7 ad 6a be
       -0.13047704 0.01203311 -0.11870335 -0.22917877
0000f0 5d f8 8c 3d bc aa 2f 3e 72 42 50 be b0 71 b2 3d
       0.06883309 0.17154974 -0.20337847 0.087130904
000100 c4 de 55 3e 5e 0a 76 bb 63 65 ff bc 10 a8 3e bc
       0.2088576 -0.00375428 -0.031176275 -0.011636749
000110 46 26 6f 3d 02 81 26 3e 15 c0 1e bd 03 c4 9e 3e
       0.05838611 0.1626015 -0.038757402 0.3100892
000120 8d cc cd 3b 72 57 af bc f8 72 21 bd 53 6b ca 3d
       0.006280488 -0.021404002 -0.039416283 0.09883752
000130 0c bc a6 3c 04 d0 3d 3e 1f 1d 6a 3e 3f db a8 be
       0.02035334 0.18536383 0.22862671 -0.32979771
000140 c8 e9 54 be b1 5b 63 3c b6 4f 9a 3e fc 43 d5 3c
       -0.20792305 0.013876841 0.3013894 0.026033394
000150 67 b4 ec bd 6c 67 04 bd fd c2 11 be 72 04 36 3d
       -0.115578465 -0.032325193 -0.14234538 0.044437833
000160 bb 35 dd 3e 28 ff 7e bd 7b 8f c3 3c d9 77 14 3e
       0.43205056 -0.062255055 0.023872128 0.14498843
000170 d7 38 a1 be f4 14 2d 3f 1e 13 9d be f7 98 48 be
       -0.31488678 0.67610097 -0.30678648 -0.19589601
000180 1e a8 9f 3d 06 bd b9 bc d9 3e 36 3e 9f 54 a9 be
       0.07795738 -0.022673141 0.17797412 -0.33072373
000190 8f 81 60 3d 96 f1 54 3e af 4c eb ba c1 1f 25 be
       0.054811057 0.20795283 -0.0017951931 -0.16125394
0001a0 25 91 cb be 54 c7 10 3e bd a4 85 be 47 a4 34 be
       -0.39759174 0.14138538 -0.26102248 -0.17640792
0001b0 11 ef 37 3e c9 18 c5 3d f3 5f 3f bd 86 d3 44 3e
       0.1796229 0.09623868 -0.046722364 0.19221315
0001c0 f3 ec 31 bd 06 83 bc bc 52 f2 6a 3e d9 4b 57 be
       -0.043438863 -0.023011696 0.22944 -0.21025027
0001d0 f1 2b 34 be 31 e9 a5 bb 98 38 1a 3e 4e 9b d2 3d
       -0.17594887 -0.005063199 0.15060651 0.10283528
0001e0 88 1e 4b 3e 47 e2 e3 3a b2 fa f6 bd 9d e4 60 3e
       0.19835865 0.0017386161 -0.12059535 0.21962209
0001f0 a8 2e 45 be 6f ce ae bd ed 0a bb be 0f 56 17 3e
       -0.19256079 -0.08535468 -0.36531773 0.14778922
000200 a5 67 13 3e 33 1f ec be 71 61 ef bd 9f 48 cb 3d
       0.14395006 -0.46117553 -0.11688507 0.09925961
000210 3f 49 90 bd 76 f5 dc 3c b6 21 9b 3c 71 54 8b bc
       -0.070452206 0.026972514 0.018936973 -0.017008038
000220 58 0c 30 bd 91 fd 00 3e 8f 05 9d bd 3d 8d 94 3d
       -0.042980522 0.12596728 -0.07667076 0.072535016
000230 b1 78 95 3e 61 f9 c3 3d 66 57 e1 3e c4 f7 3d be
       0.29193643 0.095690496 0.44011992 -0.18551546
000240 76 3e 33 bf a8 9d 40 bf e6 29 ce 3d b0 74 f5 bb
       -0.7001718 -0.75240564 0.10066585 -0.007490717
000250 47 2c 2a be 60 83 d7 bd c5 ae 59 bd f7 f6 6e bc
       -0.16618453 -0.10523105 -0.05314519 -0.014585248
000260 c1 57 de 3d 78 12 57 be 3c e2 1a 3e 7b 69 25 be
       0.108565815 -0.21003139 0.15125364 -0.16153519
000270 66 5d cd 3e 29 df 7b 3e 8a 93 c6 3c f6 58 77 3d
       0.4011032 0.24596848 0.024240274 0.060387574
000280 6c ca 6d be 56 ad 5e bc d6 e2 1e bf fc 71 81 be
       -0.23221749 -0.013591131 -0.62064874 -0.25282276
000290 68 55 3f be 59 e6 3a 3e c3 4f a7 bd f1 5c 79 bb
       -0.18684924 0.18251933 -0.0816951 -0.0038049782
0002a0 06 08 86 be 76 ce a0 3d f5 ef 43 3e 70 91 63 3d
       -0.26177996 0.07851879 0.19134505 0.055558622
0002b0 19 bc cb 3e c9 92 3f bd 62 97 9a bd 43 21 a8 3e
       0.39791945 -0.046770845 -0.07548405 0.32837877
0002c0 65 75 b6 be 9e 92 d5 bd c3 9b c3 3d 09 a6 e2 be
       -0.3563644 -0.10428356 0.095511936 -0.442673
0002d0 46 7a cc 3d c6 d9 db 3d 0e 3c ca bd a3 87 be 3d
       0.09984259 0.10734896 -0.09874736 0.093032144
0002e0 ce de 8b bd 98 4c b7 3d 75 f2 20 be 67 11 f6 bc
       -0.06829606 0.08950156 -0.1571749 -0.030037595
0002f0 6a 73 76 be 2e 75 89 3e 9e 75 1a be 6c 7a 04 3f
       -0.24067464 0.26847214 -0.1508393 0.517493
000300 59 b4 34 3e 11 73 14 be f9 23 29 bf fc ac 17 be
       0.17646922 -0.1449702 -0.66070515 -0.14812082
000310 f4 a8 8d bd 68 8b 8a 3d a2 56 c1 be ed c7 e2 bd
       -0.06916991 0.06764871 -0.37761408 -0.11073289
000320 58 13 2f 3d 32 3a fb bc b9 4e 64 be 77 0c 22 be
       0.042743057 -0.030667398 -0.22295655 -0.15825067
000330 c5 f2 5f 3e 05 63 b5 3d a9 0b 5a 3e 87 1d c9 bc
       0.21869953 0.08856777 0.2129351 -0.024550213
000340 10 6c a3 bd 21 be e2 bc 85 46 37 bd b4 6e 19 3d
       -0.07979596 -0.027678551 -0.044744987 0.03745909
000350 af f5 42 bc f4 3b 90 be f5 ca 8e 3d f4 99 48 3e
       -0.011899396 -0.2817074 0.06972305 0.19589978
000360 05 27 6c bf 08 1e b4 be f1 9a f5 b9 02 e0 f6 bf
       -0.9224704 -0.35179162 -0.00046845482 -1.9287112
000370 3b a2 01 bd aa 39 4d bb 46 bc 86 3e e0 23 6d bd
       -0.031648856 -0.0031314888 0.26315516 -0.05789554
000380 17 48 51 be 61 10 51 be 64 e1 92 bf 94 2d d3 bd
       -0.20437656 -0.20416404 -1.1475034 -0.10311428
000390 19 8c 97 bc 54 0f 5e bc d3 7b a7 3d 8f 37 33 be
       -0.018499421 -0.013553459 0.081779145 -0.17501663
0003a0 35 f5 92 3d f3 0c 55 3a 0e 87 ff 3d 41 93 c3 3d
       0.07175676 0.0008127235 0.124769315 0.09549571
0003b0 2a 2b 39 bd 8c 9a 0b bd b5 d6 7f be 12 21 52 b8
       -0.04520718 -0.034082934 -0.24984248 -5.00987e-05
0003c0 22 e5 89 3e b1 8d b1 3e 0a 9d 9d 3d 7e 19 08 bd
       0.26932627 0.34678414 0.076959684 -0.033227436
0003d0 e0 9c c5 3d 00 b4 98 be 66 28 a6 3e cb 08 f1 be
       0.09649062 -0.2982483 0.32452697 -0.4707702
0003e0 ce 24 f3 bd 00 18 80 3e bb a5 03 3d f1 5e cd bd
       -0.11872254 0.2501831 0.032140475 -0.10027874
0003f0 c3 98 90 be 4e 15 5d 3e 3e e2 b2 3d bf 27 e6 bd
       -0.28241548 0.21590158 0.087345585 -0.1123805

fc1.bias f4 [256]
000000 c9 79 7d 3c 2e 14 9f 3d fb ee 93 bd e1 b4 33 bd
       0.01547093 0.07767521 -0.07223316 -0.04387367
000010 9d 3c 41 3d f9 9b 22 3c 3f 5c 0e be 65 1d 31 be
       0.047176946 0.009924882 -0.13902377 -0.1729637
000020 83 9c 1e be 20 92 82 be f4 99 46 bc a7 2f 86 3e
       -0.15489392 -0.2550211 -0.012121666 0.2620823
000030 6e 73 33 be 0e e4 16 be f4 14 0c be a4 d8 99 3c
       -0.17524502 -0.14735433 -0.13679868 0.01878006
000040 c9 d7 1c 3d e3 d0 00 3d 16 9c 20 be c9 dd 68 be
       0.038291726 0.03144921 -0.15684542 -0.22740854
000050 7e 30 69 bc 3c 5c de 3c 4c a0 94 bd 32 bb 4d be
       -0.014232753 0.02714359 -0.07257137 -0.2009094
000060 b1 19 08 bc c8 4a b8 3d f6 08 b5 3b be ce b3 3d
       -0.008306907 0.089986384 0.00552475 0.08779667
000070 74 de 24 bc 47 f0 6f 3e ad 22 be 3d 8e 9e 2a bd
       -0.010062803 0.23431502 0.09283958 -0.041655116
000080 07 43 00 be 43 dc 9b 3c d3 8d e4 bd 0a c2 61 3d
       -0.12525569 0.019025927 -0.11159863 0.05511669
000090 44 bf 87 3c a6 f9 c8 3d 98 65 d5 bd c7 a0 dc 3d
       0.016570695 0.09813242 -0.10419768 0.10772853
0000a0 08 2e 45 bb 75 69 41 3b f7 61 bc 3d 7e 99 c0 3d
       -0.0030087251 0.002951232 0.09198373 0.09404276
0000b0 65 6d d8 bd 33 58 6c bd e4 f8 6d be 7c d7 9f bd
       -0.1056774 -0.0577013 -0.23239475 -0.07804772
0000c0 7a 39 b1 bc 7d 97 41 bd 0c f1 d4 bd e9 5b 9b 3d
       -0.021633852 -0.04726361 -0.103975385 0.0758589
0000d0 53 5f 46 be 5d 09 9f bc fe 9e 13 bd ba 7e ae bd
       -0.19372301 -0.019413644 -0.0360403 -0.08520265
0000e0 e0 3b 09 3e 2a ef fd 3d 14 86 37 3e c9 5f ab 3d
       0.13401747 0.123991325 0.1792224 0.08367879
0000f0 18 0d 5c 3e 23 cf d8 3d 78 f6 3a 3c 7d 98 cf bd
       0.2148937 0.10586383 0.011411302 -0.10136507
000100 bc f6 9f 3d 47 b9 e1 bd 3e 5a 3b be 5f 80 88 bd
       0.07810733 -0.11021667 -0.18296143 -0.0666511
000110 a1 1d db bd d9 56 87 bd bd 39 1e be 5f 23 96 3d
       -0.10699011 -0.06608362 -0.15451713 0.07330965
000120 2f 27 60 be 84 20 fb 3c cd 65 55 3d 92 25 a2 bd
       -0.21889947 0.030655153 0.052099038 -0.07917322
000130 4a 1b e4 3d ac 44 30 bb 02 59 9c bd 6f 18 05 3e
       0.111380175 -0.00268964 -0.076341644 0.12997602
000140 d9 b7 35 be 81 00 b9 3c 4c 05 b6 bb cb c8 2a bd
       -0.17745914 0.022583248 -0.0055548307 -0.041695397
000150 14 20 08 3e d8 bf 05 be 44 0b 83 bc a0 93 22 3d
       0.13293487 -0.13061464 -0.015996583 0.039691567
000160 9e 27 c2 3c d5 f0 7c 3d 3a b7 5b 3e fa f0 8b be
       0.023700532 0.061753113 0.21456614 -0.27332288
000170 71 dc 16 bd ae 1c 00 3e 74 b5 86 3c 3f 21 cf bd
       -0.036831323 0.1251094 0.016443945 -0.10113763
000180 08 f9 1a bd 25 06 a9 bd 7b 86 ab bd 43 b9 c9 3d
       -0.03783515 -0.08253125 -0.083752595 0.09849789
000190 a3 c5 f7 bc 24 9c 37 be 54 8b 1a be d3 98 e0 ba
       -0.030245608 -0.17930657 -0.15092212 -0.0017135389
0001a0 65 48 e0 bd e5 18 f7 bd 3e f6 12 3e 14 3f 06 be
       -0.10951308 -0.12065295 0.14351746 -0.1311
0001b0 28 30 2c be 32 0b 18 3d d7 b0 62 3d 02 03 f9 3d
       -0.16815245 0.03712005 0.05534443 0.12158777
0001c0 8e 45 fa 3d 91 3d 85 bc a9 67 11 3e e5 78 db bd
       0.12220298 -0.016264709 0.141997 -0.10716418
0001d0 04 f2 14 be 17 a1 ca 3c 42 2d 19 be 17 ce 62 bd
       -0.14545447 0.024735017 -0.1495867 -0.055372324
0001e0 39 2c b6 bc 63 74 46 3d 7d 8b ba bd 06 6a bb bc
       -0.022237884 0.04845084 -0.091086365 -0.022877704
0001f0 29 13 1c be bf 13 2c be e7 73 18 3c 30 4f 6c 3e
       -0.15241684 -0.16804408 0.009304977 0.23077083
000200 56 f7 d1 3d f6 13 cb bc 1d 7c 2e be 3a b0 96 3d
       0.10252254 -0.024789792 -0.17039533 0.07357831
000210 bf b6 d8 3c 1c 51 de 3d 71 d2 e7 bc bb ff 08 be
       0.026454328 0.10855314 -0.028298588 -0.13378803
000220 38 05 0c be dc e6 ef bd 71 de ba 3c 91 f4 f2 bd
       -0.13673866 -0.11713955 0.022811146 -0.118630536
000230 9a c2 08 bd c3 cb 08 3e d8 6f bb 3c e6 af b3 bd
       -0.03338871 0.13358979 0.02288048 -0.08773784
000240 a2 e9 60 3c 6e dc 0d be 66 06 0b be eb 24 3d 3e
       0.013727577 -0.13853619 -0.1357666 0.18471114
000250 da bd 4d be ba cf 10 3d 3e a1 18 bd 7e 3c 39 be
       -0.20091954 0.035354353 -0.037263148 -0.18089482
000260 d9 a5 0e be 83 de 25 be e1 69 6a 3c 18 79 ee 3d
       -0.13930453 -0.16198163 0.01430747 0.116441905
000270 cd 90 52 3b ad cb 69 be db e3 d0 bc 77 01 08 3e
       0.0032129765 -0.22831602 -0.025499275 0.13281809
000280 69 37 f8 3d a8 9f 3e 3e 89 90 8e 3d 3f b1 ae bd
       0.12119944 0.18615592 0.06961162 -0.08529901
000290 04 56 9b bd 10 9b b6 bd 77 42 dd bd cb 98 41 bd
       -0.075847656 -0.089162946 -0.10803693 -0.047264855
0002a0 95 2c 17 bc d5 77 e2 bd 77 39 a9 3c 9d 1e b6 bd
       -0.009226938 -0.110580124 0.020657284 -0.08892558
0002b0 08 67 e6 3d 22 04 b3 3d 38 b1 f4 3d eb 7e ca bd
       0.112501204 0.08741023 0.11947864 -0.09887489
0002c0 2f 70 84 3d c3 a5 11 be e1 0a 73 3d e7 a5 25 be
       0.0646671 -0.1422339 0.059336547 -0.16176568
0002d0 6d 1d 05 3e aa c8 c1 bd 3f 15 02 be ec e7 f2 bd
       0.12999506 -0.09462102 -0.12703417 -0.11860642
0002e0 05 dd 45 be 94 ef 50 3d 7e 40 35 3e 7d fa fe 3c
       -0.19322594 0.05100973 0.17700383 0.031125301
0002f0 88 df 74 3c 51 ef e4 bc ad 05 36 be 96 51 04 3e
       0.014945872 -0.027946146 -0.17775603 0.12921748
000300 65 61 8f bb 48 ba 85 3e 74 5b cc 3a 20 8c 87 bd
       -0.004375624 0.26118684 0.001559122 -0.066185236
000310 94 73 c1 bd a4 9d 25 be b0 f3 2a be 73 71 09 be
       -0.09445873 -0.16173416 -0.16694522 -0.13422184
000320 72 87 b5 3c 49 1f 94 bd a7 a1 30 be 24 f8 15 3b
       0.022159312 -0.0723253 -0.17249165 0.00228835
000330 d7 a1 2a 39 e4 8e 10 be d3 11 00 3e f2 74 31 3e
       0.00016272753 -0.14117008 0.125068 0.17329767
000340 33 1f 5d 3d b8 28 bd 39 af 6f cf bd 90 37 1d be
       0.053984832 0.00036079227 -0.10128724 -0.15353227
000350 dc 98 c0 3c 36 df 2e be e1 c2 d3 3a 83 01 0e be
       0.023510389 -0.17077336 0.0016156101 -0.13867764
000360 9f 56 24 be bd dd b8 bd 7c eb a9 3d ae 2d de bc
       -0.16048668 -0.09026668 0.08296868 -0.027121391
000370 44 4c 59 bd f8 8f f5 bd f1 7e 17 be 4f 7a 55 bd
       -0.05305125 -0.119903505 -0.14794518 -0.052118596
000380 c7 8b 5d be ec a0 5e 3c 03 7b 66 bd ad 4a af 3c
       -0.21635352 0.013588171 -0.056269657 0.021397913
000390 71 e8 0e 3e bf 6f 3c be 2d df e8 bb 05 8d 0e 3c
       0.13955857 -0.18402003 -0.0071066828 0.008700614
0003a0 49 0a 90 bd f0 8e cc bd e4 5e 1a 3d d9 be 24 be
       -0.07033212 -0.09988201 0.03768815 -0.16088428
0003b0 85 e7 1f bd 08 d9 97 bc c2 76 a7 bc 3d 96 0e be
       -0.039039154 -0.018536106 -0.02044237 -0.13924499
0003c0 69 23 53 3d d7 e1 18 3e 19 6c 6d be 31 68 a7 3d
       0.05154744 0.14929901 -0.23185767 0.0817417
0003d0 65 a6 31 be 91 dd 03 bd 33 c5 fd 3c e5 00 7a 3e
       -0.1734863 -0.032193724 0.030977821 0.24414404
0003e0 37 2a bb 3b 2a 6c 18 3d b2 e2 09 bd b5 a1 64 be
       0.0057118195 0.03721253 -0.03366346 -0.22327311
0003f0 70 09 06 be cd 51 80 3e b1 32 df bd 44 74 a5 bd
       -0.13089538 0.2506241 -0.108983405 -0.080788165

fc2.weight f4 [128, 256]
000000 25 b1 06 be fc 1c 0c bc ae a0 01 bd a2 28 8a bc
       -0.13153513 -0.008551832 -0.031647377 -0.016865078
000010 75 22 cc bc 18 a7 dc 3d 37 9c 5d 3d 3a be db bb
       -0.024918774 0.10774058 0.054104056 -0.0067060264
000020 40 ae 26 bc 9b d1 a5 3d d0 d8 3e 3d 59 b9 18 be
       -0.01017338 0.0809662 0.046593487 -0.14914455
000030 bb 70 eb bc 58 2b f5 3c 35 5c eb 3d be d0 38 3b
       -0.028740278 0.029927894 0.114921965 0.0028200592
000040 15 24 2f be 67 f5 7a 3c 94 f4 b5 bd 50 0f 8f bd
       -0.17103608 0.015317298 -0.0888454 -0.069853425
000050 45 9d df bd b7 fc 94 bb d3 d8 fa bd 74 78 a8 bd
       -0.10918669 -0.0045467275 -0.12248387 -0.082260996
000060 95 7e bd bd 12 9b 13 3d eb d0 4c 3c 2b 23 53 bd
       -0.09252659 0.03603656 0.012500982 -0.05154721
000070 2e 1a 5b bd 32 48 cd bd 54 e8 1b bc e9 ac 95 bd
       -0.053491764 -0.10023536 -0.009515841 -0.073083706
000080 fb 31 4e bd 86 28 75 be 2d 17 d6 3d 42 54 95 bd
       -0.050340634 -0.2394124 0.10453639 -0.072914615
000090 83 5a 76 bd c5 2e aa 3c 02 a5 4e 3e 4a 6b f3 bd
       -0.060144912 0.020774255 0.20180133 -0.11885698
0000a0 79 5b 54 3d c6 23 61 bd d8 fd 24 be ed dd 49 be
       0.051845048 -0.054965757 -0.16112459 -0.19713564
0000b0 77 a1 86 3d e7 ce 2c bd 0e 65 f8 3c 74 5e df 3c
       0.06573766 -0.042189505 0.030321624 0.027266718
0000c0 ba 1c 2f be 6d bd dc bc f8 86 ae bc 5d 47 ad bd
       -0.17100802 -0.026945794 -0.021304592 -0.08460877
0000d0 5e bd 23 3d 5d 65 0d 3d a7 23 48 be c6 cf 30 be
       0.039975516 0.034520496 -0.1954485 -0.1726676
0000e0 62 65 2d bd f9 85 7b bd 9d c5 5b bd 09 57 c4 3c
       -0.042333014 -0.061407063 -0.053655256 0.023967283
0000f0 2e d5 18 bd 8f cd 15 be 16 90 91 3d 40 32 f9 bd
       -0.03731268 -0.14629196 0.0710756 -0.121677876
000100 36 65 8d 3c 10 2b 03 be 0d 95 9a 3b 41 5b 76 bd
       0.017260175 -0.12809396 0.0047174753 -0.06014562
000110 60 b7 b5 bc fb a9 e1 bd 1a 5f 0e 3e c0 67 ee bd
       -0.022182167 -0.11018749 0.13903466 -0.116408825
000120 fc 01 89 be b8 d9 29 3d bc 20 71 bc d1 c6 e8 3c
       -0.26759326 0.0414674 -0.014717277 0.028415116
000130 01 fd 50 bc c5 05 60 bd eb b4 e9 bd 15 19 4f 3c
       -0.012755633 -0.054693002 -0.114114605 0.012640257
000140 3a d3 b7 3d 9e 66 25 be 01 aa 2f be 20 d7 b4 bd
       0.08975835 -0.16152427 -0.17154695 -0.08830094
000150 82 d6 64 3c 63 02 8b bd 96 5b 2d be 02 48 06 be
       0.013967158 -0.067875646 -0.16929469 -0.13113406
000160 94 73 86 3c 8e 35 91 bd bc f2 25 3d 70 4d 5c 3c
       0.016412534 -0.07090293 0.040514693 0.013446197
000170 52 61 49 be 46 b3 0c 3d ad 57 97 bc 43 85 f4 bd
       -0.19666031 0.034350656 -0.018474424 -0.1193948
000180 00 f1 0a 3d 2a 59 af bd b5 d7 c5 bd 67 d2 1c be
       0.03392124 -0.085619286 -0.096602835 -0.15314637
000190 d5 a7 ea 3d 80 21 a9 bd aa 5a b5 bd d0 67 49 bd
       0.11457793 -0.08258343 -0.088551834 -0.04917127
0001a0 03 47 09 3b 7b c0 e6 bd 3e ac 78 bd 03 32 8d bc
       0.0020946867 -0.112671815 -0.060711138 -0.017235762
0001b0 b0 57 01 be c1 e0 fb bc 5b a5 1d be b2 ac 51 3d
       -0.12631106 -0.03074682 -0.1539511 0.051190086
0001c0 91 53 64 bc bd 3d 0e 3e 04 2b f1 bd 81 b8 62 bd
       -0.013935939 0.13890739 -0.11775783 -0.055351738
0001d0 75 ca f1 bd be 1b 6a 3c dc 67 18 be ec 05 ae bc
       -0.11806194 0.014288841 -0.14883369 -0.021243058
0001e0 cb 0f d9 bc a8 36 48 be 61 2d 2d be 19 f9 1a be
       -0.026496788 -0.195521 -0.16911842 -0.15134086
0001f0 62 a2 37 be 16 b0 70 bc 91 1a e0 bd e8 d4 61 bc
       -0.17933038 -0.01469042 -0.10942567 -0.013783671
000200 28 84 85 3c e9 03 5b bd e5 5f ae bd 5b 93 62 be
       0.016298369 -0.053470526 -0.08514384 -0.22126524
000210 75 ec 17 be 9b ca d0 bd d9 c2 9a 3d 24 96 cd bc
       -0.14836295 -0.10194894 0.075566955 -0.025096007
000220 6b 2f e7 bc fb f0 e0 bc fb 27 9e 3d df 14 99 3d
       -0.028220853 -0.027458658 0.077224694 0.07474684
000230 b2 9d e6 bd 2e 90 09 be a6 ef 04 3e bd 6e 36 3d
       -0.11260547 -0.13433906 0.12982044 0.044539202
000240 89 9e 44 3c c0 69 8c bd c9 d3 9b bd 06 2b af 39
       0.012000688 -0.06856108 -0.07608754 0.00033410656
000250 94 e5 b7 bd bc 05 c1 3d e8 52 7f bd 07 2a f9 bd
       -0.089793354 0.09424922 -0.062334925 -0.12166219
000260 d2 e0 9c 3d d5 51 52 bd 9d 6e f5 bd be 36 62 3d
       0.076600686 -0.051347572 -0.119839884 0.055227987
000270 f2 b1 22 be 4b f8 bb bd b2 89 a4 bd f3 fa 03 be
       -0.15888193 -0.091782175 -0.08034076 -0.12888698
000280 3d 0a 53 3c dd c7 c2 bd 96 48 f3 3c f1 a5 45 bd
       0.012880859 -0.09510777 0.029697698 -0.048253957
000290 38 35 1f be 7e d7 43 bd fe a6 71 3c 49 82 1d bc
       -0.15547645 -0.04781293 0.014749287 -0.009613582
0002a0 ad dd 66 bc f4 af 11 be 14 a7 71 bd 62 33 f7 bd
       -0.014090938 -0.14227277 -0.05899723 -0.12070347
0002b0 83 73 fd bd 3f 44 c0 bd ec 0e 3d bd 44 00 09 3d
       -0.12375548 -0.09388017 -0.04615681 0.03344752
0002c0 9e f4 35 be 00 da 1a 3d 5f 61 b1 3c 78 d4 bf 3c
       -0.17769095 0.037805557 0.021652875 0.023416743
0002d0 5e 1e a7 3d 8b 86 fe 3b 2f a4 0b be 62 27 bb bc
       0.08160089 0.0077675036 -0.1363685 -0.022845928
0002e0 9b bd 09 bd 6b ec c6 3c fc e7 b3 3d 2e c1 12 be
       -0.033628087 0.024282655 0.08784482 -0.14331505
0002f0 c3 86 84 be 41 56 8c 3c 0a d0 fa bd bd 4d b1 bd
       -0.25884065 0.017130973 -0.122467116 -0.086574055
000300 e1 91 86 be 6c 45 e6 3c 7b 08 90 bc 97 1d f5 bc
       -0.26283172 0.028109275 -0.017582169 -0.029921336
000310 d1 ab d8 bd af 75 48 3c 7e 31 5f bc be 77 95 bd
       -0.105796464 0.012235089 -0.01362264 -0.0729823
000320 8d c2 c6 bd 78 e1 cd bd ac 8c 89 bc 39 1e 02 be
       -0.09705076 -0.100527704 -0.01679071 -0.12706842
000330 72 bb a1 bd 04 6c c2 bb 7f ba 62 bd 49 3a b9 bd
       -0.078970805 -0.0059332866 -0.055353638 -0.0904432
000340 8a c1 bc bd fc 31 8e bd be ee 88 3b 7c 83 e6 bd
       -0.09216602 -0.069431275 0.004178851 -0.112555474
000350 c4 28 42 3d 6a 71 c0 bc af 96 26 be 90 c6 ba bd
       0.04740216 -0.02349158 -0.16268419 -0.09119904
000360 0b 34 31 3d d2 6d 7b 3c 7e 91 0b be 09 d6 20 be
       0.043262523 0.015346007 -0.1362972 -0.15706648
000370 1a 53 fb bc 90 a4 2d be 1d 3a b3 bd 32 41 68 3d
       -0.030679274 -0.16957307 -0.087513186 0.0567028
000380 2c ef 43 bd 91 66 8a bd de 55 4a be 81 bc 1d bd
       -0.047835514 -0.06757844 -0.19759318 -0.03850985
000390 73 74 f5 3d bc c2 b7 bd d4 83 1d 3d aa 3c 91 3d
       0.119851016 -0.089726895 0.0384558 0.07091649
0003a0 91 72 e8 3b 29 b5 51 be 75 e6 7d bd 37 9f 25 3d
       0.0070937355 -0.20479263 -0.06198736 0.040435042
0003b0 25 91 9c bd b5 9d 28 bd f8 cb 88 3d d1 56 a5 bd
       -0.076448716 -0.041166026 0.06679529 -0.080731995
0003c0 52 b5 b8 3b ea 4b 16 be cf d6 c0 bd 00 af 29 be
       0.0056368494 -0.14677396 -0.094159715 -0.16570663
0003d0 71 da 20 bc 7f b5 06 bd 7a d8 b7 3c 8d df b9 bd
       -0.0098177055 -0.032887932 0.022442091 -0.09075842
0003e0 b0 5b bc bd 41 b3 07 3b 1b 8f 58 3c 28 68 67 be
       -0.091971755 0.002070621 0.013217713 -0.22598326
0003f0 35 d6 d1 bd 9c a5 cc bd 9f d9 fd 3b bf 2f b7 bd
       -0.10245935 -0.09992525 0.0077468897 -0.08944654

fc2.bias f4 [128]
000000 25 0a 8d bd c5 36 c4 3c 2e e2 7f bd a3 42 16 bd
       -0.068867005 0.023951897 -0.06247156 -0.036684643
000010 17 35 03 be 84 5f 00 be b1 ab 2d 3c b6 08 f4 bc
       -0.12813221 -0.12536436 0.010600016 -0.02978931
000020 12 f5 63 3c 19 a0 fd bc 96 4e 7a bd 1f 5c b3 bb
       0.01391341 -0.03096013 -0.0611101 -0.005473628
000030 7e 6a dd bd e7 30 84 bb 67 f8 35 bd 08 cc a4 3c
       -0.108113274 -0.00403415 -0.044426348 0.020116821
000040 39 b8 71 bd 87 c0 4e bd 3e 11 8b bd 07 cc 28 be
       -0.05901358 -0.050476577 -0.06790398 -0.1648408
000050 2e d4 31 3d e9 22 9e ba f7 c4 a4 bc 8f 71 ae bd
       0.04341524 -0.0012064847 -0.020113451 -0.08517753
000060 8d 2f f2 bd 75 a7 90 bd b7 25 7e 3e 68 5c c5 3b
       -0.11825476 -0.0706319 0.24819075 0.0060229786
000070 0a b1 48 bd 25 2e d0 bd 39 d3 b0 bd a9 50 4f bd
       -0.048996963 -0.10165051 -0.086340375 -0.050614033
000080 b5 03 32 bc 42 be 18 bd b0 9e 36 3d 07 fb 8e bd
       -0.010865142 -0.03729082 0.04458493 -0.069814734
000090 e9 1b 4a 3c a8 ce ab bd ee 6f 0d bc 47 ed 96 bc
       0.012335756 -0.08389026 -0.008632643 -0.01842369
0000a0 55 be d1 bd ec 9e 40 3c 4d 44 67 bc d2 de 1d bd
       -0.10241381 0.01175664 -0.014115405 -0.038542576
0000b0 f9 e0 e1 bc 1e ea dc bc b4 5d af bc 5e de c1 bd
       -0.027573096 -0.026967105 -0.021406986 -0.09466241
0000c0 54 63 59 3e 53 55 61 bc 5f d7 ff bd 90 0c ae bc
       0.21229297 -0.013753253 -0.12492251 -0.021246225
0000d0 b2 46 85 bc 3f f7 49 3c 50 a7 11 3d 5f 46 37 bc
       -0.016269062 0.0123270145 0.035559952 -0.011186211
0000e0 11 f8 c2 3b 39 2b bc bd af 4b 44 3e 3c ef cb bb
       0.005949982 -0.091879316 0.19169496 -0.0062235873
0000f0 c5 a1 25 bb dc 24 3e be f5 d6 38 3a a8 c4 cf bc
       -0.0025273424 -0.18568748 0.0007051074 -0.025362328
000100 b2 63 9b bc 53 9d 38 3e 9b 32 a4 3c 6d 45 95 3d
       -0.018968437 0.18028764 0.020043662 0.072886325
000110 34 8c 74 3c e3 3e b4 bd 83 ca 4a bc 15 1a a7 bd
       0.014926005 -0.08801057 -0.012377384 -0.08159272
000120 04 ef 16 3d c7 1a f3 bb 81 d3 a8 bd 3b 20 0d be
       0.036849037 -0.0074189636 -0.08243466 -0.13781826
000130 2c 34 e3 3c cc 45 00 bd 24 89 0e bc 93 b2 53 3c
       0.027734838 -0.031316563 -0.008699689 0.012920993
000140 f2 db 30 bc 07 14 2d be a6 93 3c bd fd c2 28 3d
       -0.010794627 -0.16902171 -0.046039246 0.04120158
000150 04 76 43 3f a2 82 d4 3d d4 55 cb bc 82 be b8 bc
       0.7635195 0.10376479 -0.0248212 -0.022551779
000160 21 54 10 bd 68 b3 c4 3d 97 c7 ce 3e 8d 48 b0 3d
       -0.03523648 0.096045315 0.4038665 0.08607588
000170 e4 2f a2 3d f8 0c 81 3c cf d8 73 bd 68 b8 8d bc
       0.07919291 0.015753254 -0.059532937 -0.017299846
000180 d3 50 34 3d fa 2c dd bd cf ea 5f 3b d2 86 7f bd
       0.044022392 -0.10799594 0.0034167056 -0.062384434
000190 3e dd 89 bd b7 ad ad 3d 7e d6 01 bd 8e f7 23 3d
       -0.06731652 0.08480399 -0.031698696 0.04003101
0001a0 cf 37 c1 bd 76 e5 7e bd 62 f1 b3 bd 0e 83 fb 3c
       -0.09434473 -0.06223055 -0.087862745 0.03070214
0001b0 bb 13 4b bc cc d5 7d bd 82 d1 4d bc 40 7b 87 3d
       -0.012394841 -0.06197147 -0.012562158 0.06615305
0001c0 01 68 2a 3e 28 d8 08 bd d7 5c 68 3e 93 e6 2a be
       0.16641237 -0.033409268 0.22691666 -0.1668952
0001d0 8a 23 a6 3a 9f f1 f7 bd 85 9c 40 bc 16 1d e7 bd
       0.0012675386 -0.121066324 -0.011756067 -0.112848446
0001e0 a9 00 b6 bd 10 8f 72 bd de 47 dc bd 0a 79 1a bd
       -0.08886845 -0.059218466 -0.10755895 -0.037713088
0001f0 e4 39 50 3d f1 a1 5b bd 7f 4d 29 be 6c 6e 51 3d
       0.05083646 -0.053621236 -0.16533469 0.051130697

fc3.weight f4 [4, 128]
000000 e8 a4 d0 bb 59 27 13 3d b6 d0 b0 be ca 8f aa 3e
       -0.0063673146 0.035926197 -0.34534234 0.33312827
000010 57 a2 a8 3d b1 b4 3d be c7 4c 1d bd da 16 00 3c
       0.08234089 -0.1852596 -0.0384033 0.007817948
000020 61 93 89 3e c4 a5 00 bc 7d 95 22 be 92 60 9e 3e
       0.26870254 -0.007852022 -0.15877338 0.30933052
000030 8c 01 8a be 94 a5 7d 3e 58 83 f0 bd 76 fb 0e bc
       -0.26954305 0.24770194 -0.11743802 -0.008726945
000040 55 dd 86 3d af 57 a9 bd e9 6f 01 3d 04 58 b1 be
       0.065851845 -0.082686774 0.031600866 -0.34637463
000050 db 1e bf be b0 2f bb bd 87 93 85 3e 87 f2 5b be
       -0.37328228 -0.09139955 0.26089117 -0.21479236
000060 1c a3 1f be 8c db 04 be 22 7a 19 3e f9 5d 98 3e
       -0.15589565 -0.12974375 0.14987996 0.29759195
000070 63 7d 4a 3d 11 ef 8b 3d 31 3f 18 3e d4 76 b3 be
       0.049435984 0.06832708 0.14867856 -0.35051596
000080 68 06 7c be a4 2e 2f be 20 51 9a bc 8e 0f ac 3d
       -0.24611819 -0.17107636 -0.018837512 0.08401404
000090 34 24 fb 3d d7 4d 7c be bc c6 1f 3d 2e de c4 3d
       0.122627646 -0.24639069 0.039007887 0.0961269
0000a0 72 18 03 bf 9b d8 b7 3d 45 8e 0a 3e 90 0c 92 bd
       -0.51209176 0.08976861 0.13530834 -0.07131302
0000b0 82 4b 9b 3d 0f d7 6a bd ed 95 e8 3d dc b0 4a bd
       0.07582761 -0.057334002 0.11356721 -0.049485072
0000c0 18 7a 91 3d 35 05 f9 bd f6 f0 dd bc 0a 53 ec be
       0.07103366 -0.12159196 -0.027092438 -0.46157104
0000d0 e1 58 2f 3d e5 a6 22 3e cc 4b 3a 3e 8f f4 3c be
       0.04280937 0.15883978 0.18192977 -0.18452667
0000e0 04 d5 50 3e b9 82 79 3d 60 ff 83 3e ec 29 2c bd
       0.20393759 0.060915682 0.25780773 -0.042032167
0000f0 d3 fa bf bc 8f 1a 93 bd 3d 7e 29 3d 16 6f d1 3d
       -0.023435032 -0.071828 0.041380156 0.10226266
000100 12 2f 8a be f4 9e 29 bb 5c 4d 3e 3e 40 11 24 3e
       -0.26989037 -0.0025882097 0.18584198 0.16022205
000110 3c c2 57 3e cc 00 04 3d 15 5e 8d 3c f6 7a 20 3e
       0.21070188 0.032227322 0.017256776 0.15671906
000120 44 20 b9 3d d4 28 91 3c 34 a4 ba 3d 5f ce ed 3d
       0.09039357 0.017719664 0.091133505 0.11611628
000130 e3 be 3a be 98 fa 07 bf 51 11 c6 3d c0 8f 32 3d
       -0.1823688 -0.5311675 0.096712716 0.043594122
000140 90 8a 46 be 97 ff 22 be 32 e0 b8 bc 7a aa ce 3c
       -0.19388795 -0.15917812 -0.022567842 0.025227774
000150 7e 3f 41 3e 2a fa f4 3d 73 78 ae 3d 34 20 7c 3d
       0.18871877 0.119617775 0.085190676 0.06155415
000160 53 9e 0a 3d 7c 83 75 3d 00 cb a8 3d 16 34 ac 3d
       0.033842396 0.059939846 0.08241844 0.08408372
000170 c6 99 12 3e 78 84 4b 3e 64 87 57 3e 99 f1 95 3e
       0.14316472 0.19874752 0.21047741 0.29285887
000180 60 1a 9e 3e 71 68 96 3e 2e 9f 5c 3c bc c6 e2 bc
       0.30879498 0.29376557 0.013465686 -0.027682655
000190 52 80 d3 be 6b 79 c1 3e 62 41 2f bd a4 6f 0d 3e
       -0.41308838 0.37787947 -0.042786963 0.13812119
0001a0 19 7b 2b bd 2f 9e 04 3d d6 c0 23 be e7 aa 3e 3d
       -0.041865442 0.032377418 -0.1599153 0.046549704
0001b0 39 71 ca be e9 51 1f 3d 38 1d 44 be 72 cd c2 3e
       -0.39539507 0.038896475 -0.19151771 0.38047367
0001c0 c2 d2 4b 3e f8 8e 1e 3e fb 8d 20 3e 73 a7 93 3c
       0.19904616 0.15484226 0.15679161 0.018024182
0001d0 53 00 66 3e d9 c7 c5 3d fb 75 44 be f0 5b c0 3d
       0.22461061 0.096572585 -0.19185631 0.09392536
0001e0 bc 04 30 be da 3e 8b bd b9 44 e5 be ad e5 9e be
       -0.17189306 -0.06799097 -0.44778994 -0.31034604
0001f0 09 64 93 3d 68 a2 48 3e 89 35 d7 3d 71 8c 33 be
       0.071968146 0.19593203 0.10508258 -0.17534043
000200 54 e4 7d 3e a9 45 06 3e bc 99 aa bd de ef 8a 3e
       0.24794132 0.1311251 -0.08330104 0.2713613
000210 98 88 2c be d0 0d 07 be e9 37 c7 3d d3 a4 57 3d
       -0.16848981 -0.13188863 0.09727461 0.052647423
000220 2f 1c 37 3e a7 6d 8f be 5b 4d 05 bc d9 e8 8d 3e
       0.17881845 -0.28013346 -0.008136119 0.2771671
000230 26 bd 95 3d 6b 0b a5 3e 2e 93 a9 bd d0 77 18 3e
       0.07311468 0.32235274 -0.082800254 0.14889455
000240 6c 43 63 3e 3f 03 c2 bd 40 42 c7 be ab b5 fe bd
       0.22193688 -0.094732754 -0.38917732 -0.12436994
000250 57 77 0a 3e 52 20 93 3e f3 c2 b7 3e a5 12 91 be
       0.13522087 0.28735596 0.35890922 -0.28334537
000260 83 79 90 3d d1 11 0a bd 37 78 f7 3d f4 6e af 3d
       0.070544265 -0.033708397 0.12083476 0.085660845
000270 dc 51 aa 3c da 28 81 3d a8 41 f6 3d 92 ba cd 3d
       0.020790987 0.0630662 0.12024242 0.10045351
000280 46 1a f6 3c b7 e5 0f be 69 f7 44 3c e7 d7 8e bb
       0.030041825 -0.14052473 0.012021878 -0.0043592337
000290 6f ff 43 be 4e e3 00 be 96 b2 88 bd 54 56 62 be
       -0.19140409 -0.1258671 -0.066746876 -0.22103244
0002a0 f6 8c 09 3e de 22 81 3e d8 8d fc 3d 9e fb 5f bd
       0.13432679 0.25221914 0.12331742 -0.05468332
0002b0 4d 8c f2 3d c2 77 4e 3d 33 81 69 bc f7 42 cd 3c
       0.118431665 0.05040718 -0.014251995 0.025056345
0002c0 18 18 f1 3c 49 ed 17 3e 46 88 69 3e 19 57 2a bd
       0.029430434 0.14836611 0.2280589 -0.04158697
0002d0 eb 90 a6 3c 7a 16 37 3e 2b 3f a5 3e b5 29 c4 3d
       0.020332774 0.17879668 0.32274756 0.095782675
0002e0 8d 7b c4 3d ac bd f5 bc a4 30 5c 3e a7 eb 57 bd
       0.09593878 -0.02999767 0.2150293 -0.05271497
0002f0 74 8b 5f be a0 b6 94 bc 4d 97 ab be ae 4f e4 3d
       -0.21830541 -0.018153489 -0.3351387 0.1114801
000300 a0 9e 99 bd bd 31 88 3d f7 b5 37 3e a1 ea 2a 3e
       -0.075009584 0.06650112 0.17940508 0.16691066
000310 2c 96 e4 3e ae d2 c6 bd f0 95 8e 3d 6a de 84 3e
       0.44645822 -0.09708153 0.06962192 0.25950938
000320 1d 44 63 3e 7b 8d 4c 3d 6a 2b d0 3d b0 6e 57 be
       0.22193952 0.049939614 0.101645306 -0.21038318
000330 fe 2a 8f 3d 32 22 10 3e 71 9c 31 3a cf b8 29 3e
       0.06990622 0.14075544 0.0006775326 0.16574405
000340 6c bd d4 bd fb 61 ea bd 24 5d 3b bd 10 c8 c7 3e
       -0.10387692 -0.114444695 -0.045743123 0.39019823
000350 2e e2 3a 3e 45 91 85 3d f6 40 b5 bc f8 de 76 3d
       0.18250343 0.065218486 -0.022125702 0.060271233
000360 71 ad c3 be 51 56 e0 3d 9a 73 8d 3d e6 e9 e7 be
       -0.38218263 0.109539635 0.06906815 -0.45295638
000370 7b b5 62 3e dc 7c 0c 3e 89 06 bc 3e 19 af 19 3e
       0.22139542 0.13719505 0.36723736 0.150082
000380 ac 43 0a 3e 6d dd b7 3e 5e e8 fa 3d ca 96 1d 3d
       0.13502377 0.35911122 0.12251352 0.03847388
000390 98 ba 2d be 2b 7e 96 3e 79 12 45 3e 96 1b 6e bd
       -0.16965711 0.29393134 0.19245328 -0.058131777
0003a0 b7 2d 85 bd 2e b4 12 3e b7 b1 4b bd e4 17 80 3e
       -0.0650286 0.14326546 -0.04973003 0.25018227
0003b0 6d ee 17 3e cb 54 69 3d 4f 6d f5 bd ad c3 b5 3e
       0.14837046 0.05696563 -0.119837396 0.3550085
0003c0 23 d6 04 3e 8c c3 68 ba f6 49 13 3e 55 97 f7 3d
       0.12972312 -0.00088792364 0.14383683 0.12089411
0003d0 d6 a1 4c 3e 81 e6 2c 3e 8f 0b f5 bc a0 c7 00 3e
       0.1998361 0.16884805 -0.029912738 0.12576151
0003e0 1c fe 4a be b1 10 f4 be 57 8c 49 be 5e 39 93 bd
       -0.19823498 -0.47668985 -0.19682442 -0.07188676
0003f0 2a cf 96 3c ef 63 0e be 85 20 fb 3e d8 fe 0c bf
       0.01840933 -0.13905309 0.49048248 -0.5507636

fc3.bias f4 [4]
000000 b0 ce f1 3e 12 46 e9 3e 14 62 bd 3e 41 08 00 3f
       0.47228003 0.45561272 0.3698889 0.50012594
