checkpoints/checkpoint.pth (torch_old, 173608 bytes, 6 tensors)

fc1.weight f4 [256, 37]
000000 e3 71 37 bc 18 3d f8 3c 24 19 f5 bd 8f 74 61 3c
       -0.011196586 0.03030257 -0.11967686 0.0137607
000010 8a cc d9 bc 15 28 32 3e 08 56 a2 be af 11 40 3e
       -0.02658679 0.17398103 -0.31706262 0.18756746
000020 74 38 52 bd b0 d6 a1 be 40 60 18 3d 73 f2 bf 3c
       -0.05132337 -0.31609106 0.037201166 0.023431038
000030 7b ea 8b be fe 80 44 be b2 7b 8d be 6c bc c6 3c
       -0.27327332 -0.19189832 -0.27633435 0.024259768
000040 c5 e8 f4 bd b8 a2 57 3e 67 89 bb bd 29 5f 32 3e
       -0.1195846 0.21058166 -0.09157067 0.17419113
000050 43 8a db bd d8 31 53 3e 61 2e 18 be 9c bd b8 3e
       -0.10719731 0.20624483 -0.14861442 0.3608216
000060 ac aa ec bc dc 86 0c be 49 86 9d 3e 58 f3 b3 bd
       -0.028889976 -0.1372332 0.30766514 -0.087866485
000070 df 79 34 be fa 94 26 3e 57 6c 11 be 8f 88 98 3d
       -0.17624615 0.16267768 -0.14201485 0.074479215
000080 9d fd 29 3d a0 c8 4c bd 0c b0 2e be 22 fa 8c bc
       0.04150163 -0.04999602 -0.17059344 -0.017209116
000090 1a d8 c4 bc 15 f4 0b 3e a0 29 e3 bc ba a7 63 3d
       -0.024028827 0.13667329 -0.02772981 0.05557988
0000a0 83 3d a1 bd 7a fc 3c be 87 58 f1 3d ef 39 ee be
       -0.078730606 -0.18455687 0.117844634 -0.46528575
0000b0 fb 94 89 bd a8 d3 2e bf b2 89 fd be a9 75 32 be
       -0.06717869 -0.6829171 -0.49519116 -0.17427696
0000c0 fb 43 29 be 9a 2c c7 3c 7f d1 c7 3e 02 c9 78 3e
       -0.16529839 0.02431326 0.3902702 0.24295428
0000d0 94 c4 06 bd 30 9e 21 be 1c c0 8f 3e 3f 1b ee bd
       -0.032902315 -0.15783 0.28076255 -0.116262905
0000e0 73 ed 10 be 33 0d 62 be 7a 32 17 be 39 49 e0 3b
       -0.1415308 -0.22075348 -0.14765349 0.0068446663
0000f0 68 85 fd bc ba 73 c2 3d 0c 87 a1 bd 94 29 f0 be
       -0.030947402 0.09494729 -0.07887086 -0.46906722
000100 67 df 5d 3e 99 e6 2c be 32 44 36 bf 37 5a cb bd
       0.21667252 -0.16884841 -0.7119781 -0.099293165
000110 24 e6 73 3e d7 19 5b 3e d9 cb f0 be 04 ed af be
       0.2381826 0.21396576 -0.47030523 -0.34360516
000120 49 1b 6f 3c 96 4f 45 bc a7 7f ed 3d 20 33 1e 3e
       0.014593908 -0.012042901 0.115966134 0.1544919
000130 dd 7e ac bd 73 55 1b be f4 39 22 3e 45 76 c2 be
       -0.08422635 -0.15169315 0.1584242 -0.37980857
000140 bd cd ed bd a5 76 2d 3e 39 a5 e1 3d e9 c5 87 be
       -0.11611507 0.1693979 0.11017842 -0.2651818
000150 e1 c8 59 3d 21 87 ac bd a4 91 6a bc 87 00 81 be
       0.05317009 -0.08424211 -0.01431695 -0.25195715
000160 2c fa 34 3e 97 d7 b3 bd 32 4f 83 3d 7e b1 13 3e
       0.17673558 -0.08781355 0.0641159 0.14423177
000170 31 51 dc bd d8 a4 8a 3e d7 ab aa be 90 64 10 bd
       -0.107576735 0.2707889 -0.33334228 -0.035252154
000180 68 86 f8 3d 47 7f 47 bd 96 00 ea bd bf d0 82 be
       0.12135011 -0.048705366 -0.11425893 -0.25549886
000190 52 2c 3c 3d a0 14 a8 3e ec a1 63 be 59 af 0b be
       0.045940705 0.32828236 -0.22229737 -0.13641109
0001a0 f5 56 0f bf 95 61 c7 3d b7 01 da bd ab f2 84 bc
       -0.5599206 0.09735409 -0.10644858 -0.016228994
0001b0 82 e4 60 3d 9b 50 c2 3c 28 62 00 bd 2e ac 00 3e
       0.054905422 0.023720076 -0.03134361 0.12565681
0001c0 4f a3 4b bd 32 e1 6e 3e 8e 1e fc 3d 38 e4 27 bd
       -0.04971629 0.23328093 0.12310515 -0.04098913
0001d0 4d ca 80 3c da 10 8d bd da b8 33 3d f6 a7 91 3e
       0.015721465 -0.0688798 0.04387746 0.28448457
0001e0 40 4e eb 3d 34 7b a2 bd e4 5e 04 3d a4 29 86 3e
       0.114895344 -0.079336554 0.032317057 0.26203644
0001f0 03 b4 5d be 8d 1f 96 bd 37 98 4e bc c0 f4 9f bd
       -0.216507 -0.073302366 -0.012609533 -0.07810354
000200 ef ee 28 3e 63 ba ae be a5 32 1e be 82 55 bb 3d
       0.16497396 -0.34126577 -0.15449007 0.09147169
000210 00 4a 18 bd cb 16 1d bc 26 47 54 3e 8e 26 0c be
       -0.037179947 -0.009587954 0.20730266 -0.13686582
000220 2a d5 13 3e 6a d5 3d be 28 89 30 3e 51 fc e9 3d
       0.14436784 -0.18538442 0.17239821 0.11425079
000230 f0 d0 9f 3e 3b db 37 3e 52 11 1a 3e 33 b3 e0 3c
       0.31214094 0.17954724 0.1504567 0.027429199
000240 d1 8c 46 be f4 f5 18 bf b7 79 ba 3d e7 d2 8c 3b
       -0.19389655 -0.59750295 0.091052465 0.0042976025
000250 cd b3 c5 bd 82 1b 35 be 2c d5 9f bd 96 52 21 bc
       -0.09653435 -0.17686275 -0.07804331 -0.00984635
000260 25 56 16 be bb 6f 2c be fc 9a af 3e 8f 73 91 be
       -0.14681299 -0.16839497 0.3429793 -0.28408477
000270 b9 1d 99 3e 3c b3 ca bd 4a fa ef bd 64 b5 a3 bc
       0.2990549 -0.098974675 -0.11717661 -0.019983955
000280 f2 1b c3 3d 33 71 e1 bd c4 14 db be c4 f5 16 be
       0.095268145 -0.11007919 -0.4278928 -0.1474219
000290 4e 9e 2c be b3 34 e3 3d 61 a8 af bd dd 12 54 3e
       -0.16857263 0.11094036 -0.085770376 0.20710321
0002a0 2d 26 6c be 58 d5 a9 bd b5 4f 8a 3e 23 e3 b0 bc
       -0.23061438 -0.08292645 0.27013937 -0.021592682
0002b0 3b 53 5a 3e 1d dc a5 3d 52 8d 0b be 6f d5 2a 3e
       0.21320812 0.08098624 -0.13628128 0.16682981
0002c0 f2 86 7f be 05 ef 3b bd 4f dc 15 3e 8a e0 cf be
       -0.24953821 -0.045882244 0.14634822 -0.40600997
0002d0 00 5b b0 3c d6 88 05 3e a6 5d ef 3d 76 99 b0 3d
       0.021527767 0.1304048 0.11687784 0.0862302
0002e0 67 a5 15 bd 32 02 b0 3c 9a 78 07 bd a9 f2 7a be
       -0.036534693 0.021485422 -0.033074 -0.2450663
0002f0 59 28 f9 be bf 46 19 3e f9 59 c6 3d c6 bc 53 3e
       -0.48663595 0.14968394 0.0968513 0.2067748
000300 e1 7e ba be d7 f8 3a be 74 a4 30 bf 81 26 0e be
       -0.36424926 -0.18258987 -0.69000936 -0.13881876
000310 55 f8 0c bf 1c 72 3c 3e b2 4e 86 be aa 51 c1 bd
       -0.55066425 0.18402904 -0.26231915 -0.09439404
000320 ea 76 cb bc fe b0 80 bd 47 0b 86 be 6e 62 37 be
       -0.024836976 -0.062837586 -0.2618048 -0.17908642
000330 db ad f5 bd 9e 2a c6 3d d7 2b 08 be d8 c5 1b 3d
       -0.11996051 0.09676097 -0.13297974 0.038030475
000340 cd d2 8a bd 29 ea 5e 3d 6f ab fe bc 24 fb a0 bd
       -0.06778488 0.05442253 -0.031087605 -0.07860401
000350 c1 69 5f be 94 7d 1e be bc 4b 17 3b 30 0b 46 3c
       -0.21817686 -0.15477592 0.0023085913 0.012087628
000360 8e 8f c2 be b2 78 6c be c1 3c dd bd 3f 96 a5 be
       -0.3800015 -0.23092917 -0.108026035 -0.3234119
000370 83 3f 63 3d 45 e9 31 3d a4 33 8e 3d cf 22 8b bd
       0.05548049 0.043435354 0.069434434 -0.067937486
000380 d6 67 79 be 95 95 01 3e 1f 4c 23 be 15 53 7d be
       -0.24356017 0.12654717 -0.15947007 -0.24738725
000390 82 41 03 be 61 2a f3 3d e1 40 86 3b 28 93 41 3e
       -0.12817958 0.118733175 0.0040970896 0.18903792
0003a0 4d fd 42 be c5 c4 41 3e 33 d4 51 3e fe c5 7e be
       -0.19041939 0.18922718 0.20491104 -0.24880216
0003b0 c4 07 07 3e 47 d1 62 be 72 dc 36 be 27 71 9f 3c
       0.13186556 -0.22150145 -0.1785753 0.019463135
0003c0 77 ff 3c 3e 61 43 8a 3e 0d 48 a6 bd a2 41 14 be
       0.18456827 0.2700453 -0.08119211 -0.14478162
0003d0 17 a7 32 3e 4b 11 61 be aa 6c 51 3e b2 db 17 be
       0.17446552 -0.21979253 0.20451608 -0.14829901
0003e0 51 76 12 be b5 2f 18 be 18 7b b2 3d 7f 0e 2e 3e
       -0.14302947 -0.14861949 0.087148845 0.16997717
0003f0 54 99 4c 3d 43 8c 08 bd a7 ea 99 bc ba 4a 79 be
       0.049950913 -0.03333689 -0.018788649 -0.24344912

fc1.bias f4 [256]
000000 89 72 03 3d 72 34 60 3d 0b b6 16 bd 65 a5 34 bc
       0.03209165 0.054737516 -0.036794703 -0.011025761
000010 92 5e 3f 3d 45 7f 72 bd 0c 10 57 be 3a 97 e7 bd
       0.04672105 -0.059203405 -0.21002215 -0.11308141
000020 8f 20 2c be 6c 41 34 be a0 3b cb 3c 44 ef 2f 3e
       -0.16809295 -0.17603081 0.024808705 0.17181116
000030 d6 1c 26 be 97 8d e7 bd d7 00 fc bd e3 e8 ed 3b
       -0.16221938 -0.11306303 -0.12304848 0.0072604283
000040 78 5c 73 3d 6e 40 d2 bd 32 d2 22 be a7 3f 44 be
       0.059414357 -0.10266195 -0.15900496 -0.19164906
000050 0c c3 0d bd ad a7 0f 3d 3b 42 bb 3a 73 a3 43 be
       -0.03460984 0.035072017 0.0014286706 -0.1910532
000060 83 4d 44 bd e6 78 40 3d 99 9d 9f 3d 96 82 15 3e
       -0.047925483 0.046990298 0.07793731 0.14600596
000070 f8 67 b1 3c 60 87 33 3e 81 97 3f 3e 5e 8a ca bd
       0.021656021 0.1753211 0.18710138 -0.09889673
000080 b4 1e 05 be 5a a1 ae 3d 8f 13 2d bd 96 c4 0a 3e
       -0.12999994 0.08526869 -0.04225498 0.13551554
000090 21 7e b4 bc 39 b4 64 3d a4 26 b1 bd 8b 55 c7 3d
       -0.0220328 0.055835936 -0.08649948 0.09733113
0000a0 f1 a7 b7 bd 00 d0 84 bd b6 a7 25 3e 31 8f a5 3d
       -0.08967579 -0.06484985 0.16177258 0.08083952
0000b0 0d f2 42 bd c4 d9 b2 bd 61 3a 52 be 4e 6d 4f bd
       -0.04759412 -0.08732942 -0.20530082 -0.05064135
0000c0 fe 6f 00 bb 18 11 63 bd 2a 83 5c bd ce 73 8e 3d
       -0.0019598003 -0.055436224 -0.053836025 0.06955682
0000d0 67 d3 b6 bd 6d 60 9e bd d8 fa 00 bd a8 ad 1a bd
       -0.089270405 -0.077332355 -0.031489223 -0.037763268
0000e0 cb 52 c4 3d 93 ee c5 bc 0c 8f 8c 3e 34 51 73 3d
       0.09586104 -0.024161613 0.27452886 0.059403613
0000f0 4a 3b 41 3e f3 4d 8d bc a8 6e 3a 3c 72 c3 d9 bc
       0.18870273 -0.017249083 0.011378922 -0.026582453
000100 79 a0 29 ba f8 34 f3 bd 5d bb f3 bd ca 9e 0c be
       -0.00064707507 -0.11875337 -0.11900971 -0.13732448
000110 17 04 6f be 9f 9d 16 be 4e b0 e0 bd 9d 9c f6 3c
       -0.23341404 -0.14708565 -0.109711275 0.030103976
000120 aa b9 7b be 56 16 c4 3d 7a eb 93 ba 3e 79 83 bc
       -0.24582544 0.09574573 -0.0011285387 -0.016049024
000130 53 db 11 3e 32 27 6d bc 5d 8b b4 bd fe 36 e7 3d
       0.14243822 -0.014474677 -0.08815644 0.11289786
000140 39 e6 4b be 7b 52 e9 3b 3c a2 c6 bd 3f 74 77 bd
       -0.19912042 0.007120428 -0.096989125 -0.060413595
000150 c0 2b 44 3d ae e6 ef bd 9a 0f 8b bb d3 65 6f 3d
       0.047893286 -0.117139205 -0.004243803 0.058446717
000160 41 33 3d 3d 2c 1f 96 3c 5b e5 43 3e d5 bb 5c be
       0.046191458 0.01832541 0.19130461 -0.21556027
000170 b3 80 d2 bd 8f 78 da 3d 11 fc fb bd 8d ce a3 3c
       -0.10278454 0.10667526 -0.12303937 0.019995952
000180 32 03 21 bd 45 34 18 be 23 00 df bd 71 b4 80 3d
       -0.039309688 -0.14863689 -0.10888698 0.062844165
000190 f2 bb 0b bd d2 37 3c be 6e cf 78 be 6a 89 60 3c
       -0.034114785 -0.18380669 -0.24297878 0.013704637
0001a0 47 bc 0f bd 69 e3 18 be 2e 86 f1 3d 83 12 4f be
       -0.035091665 -0.149305 0.11793171 -0.20221905
0001b0 5a f6 b5 bd 0e 10 8b 3d 99 68 05 3d d3 a1 a3 3d
       -0.088848785 0.067901716 0.032570455 0.0798985
0001c0 b2 58 99 3d 1f 47 83 3d 3e 2a 9c 3d 6c da 5a bb
       0.074876204 0.0641005 0.076252446 -0.003339435
0001d0 46 f9 8d bd 92 42 33 3d 78 8e 99 bd 2d 5a 82 bd
       -0.06932311 0.04376466 -0.07497877 -0.06364856
0001e0 aa 85 fe 3c 10 e8 ca 3c 0a 09 01 be 4e 29 6f bd
       0.031069595 0.02476886 -0.12601104 -0.058389
0001f0 67 c2 10 be f9 45 e7 bd e6 0e c5 38 c8 92 4c 3e
       -0.14136659 -0.11292643 9.396467e-05 0.19977868
000200 ac 71 d8 3d 30 09 86 bd 5f 32 28 be e5 16 f4 3d
       0.10568556 -0.06544721 -0.16425465 0.11918429
000210 b1 38 33 bc 2e ad a1 3c b1 ee 37 bb 27 65 c4 bd
       -0.010938809 0.019735899 -0.0028065855 -0.09589606
000220 2a 50 28 bd 3f 01 82 be 31 09 99 bc 66 de 16 be
       -0.041092075 -0.25391576 -0.01868114 -0.14733276
000230 4a 72 fe bd 3f 14 96 3d f1 8e db 3c d2 5e 28 be
       -0.12424143 0.073280804 0.026801558 -0.16442421
000240 11 5d 8a bc f3 80 e8 bd f9 58 8b bd b6 e6 0b 3e
       -0.01689008 -0.1135272 -0.068040796 0.13662228
000250 ea ab 1b be ab 37 c9 3d f4 9f 14 bd c7 08 29 be
       -0.15202299 0.09825071 -0.036285356 -0.16507255
000260 bf a7 5e be 0d 94 22 be ea 54 b7 bc 2c f4 d4 3d
       -0.21743678 -0.1587679 -0.022379357 0.103981346
000270 5b d0 b0 3b 59 09 30 be c0 ab 3f 3d 9e 84 85 3d
       0.0053959317 -0.17191066 0.046794653 0.06519435
000280 cd 62 3f 3d 30 9c 53 3e c9 87 11 3b 2a cb 90 bd
       0.046725083 0.2066505 0.0022206178 -0.070700005
000290 98 66 36 bd a0 a6 bc bd ee b6 41 bd 67 ce 96 bd
       -0.044531435 -0.09211469 -0.047293596 -0.07363587
0002a0 d7 2a 05 3c 90 fe de bd 92 28 dd 3d 47 7c ae bd
       0.00812789 -0.10888398 0.10798754 -0.08519798
0002b0 48 da b7 3d e1 89 0e 3e 21 f7 5d 3d bf 07 8e bd
       0.08977181 0.13919784 0.05419076 -0.06935071
0002c0 ef 09 b7 3d 02 9e 23 be 9e 2b b7 3d 7f e1 16 be
       0.089374416 -0.15978244 0.08943866 -0.14734457
0002d0 d0 44 25 3e 9a 1a 54 bd d2 84 1e be e7 b7 cb bd
       0.16139531 -0.05178318 -0.15480354 -0.09947186
0002e0 bb 8e 50 be 93 a1 4b 3d 11 2c 1c 3e 0e 11 d4 3b
       -0.20366947 0.049714636 0.15251185 0.0064717596
0002f0 b2 c1 bc 3d 57 c0 c1 3d 4b 9c 44 be e7 7f 4d 3d
       0.09216632 0.09460514 -0.19200246 0.050170805
000300 24 19 c9 3c 0d aa 11 3e 81 60 43 bd b3 0c b8 bd
       0.02454812 0.14225025 -0.047699455 -0.08986797
000310 26 26 88 3c e8 b4 00 be 76 89 a7 bd a2 9e e4 bd
       0.016619753 -0.1256901 -0.081805155 -0.11163069
000320 b0 9d 80 3d 0e 3b c7 3c 51 90 34 be ef be ec bc
       0.062800765 0.024320152 -0.17633177 -0.028899638
000330 cb 61 f7 bc 6a e5 00 be 2f 33 31 3e 51 a4 1d 3e
       -0.030197999 -0.12587515 0.17304681 0.15394713
000340 fa cf 70 3d 93 b9 33 bd fa c0 5a be 92 71 31 be
       0.058792092 -0.04387815 -0.21362677 -0.1732848
000350 07 ab 17 bd 39 f1 16 be df 92 aa 38 8a a1 37 be
       -0.03702834 -0.14740457 8.1335886e-05 -0.17932716
000360 84 b6 09 be b5 e6 82 3b 75 0c e4 3c 0a ed 73 bd
       -0.1344853 0.0039947876 0.027837971 -0.05955223
000370 26 c3 ba b7 72 77 00 be d0 98 9f bd c6 96 21 bb
       -2.2263801e-05 -0.12545565 -0.077928185 -0.0024656518
000380 96 11 35 be 6f 73 b2 bc ce 90 96 bd 14 27 eb bc
       -0.1768249 -0.021783559 -0.07351838 -0.028705157
000390 f4 48 1b 3e f0 13 27 be fe ea 31 3d 07 e0 3e 3d
       0.15164548 -0.163162 0.043436997 0.046600368
0003a0 c9 47 89 bd 64 6e 08 be 6f c5 e0 3d 15 58 35 be
       -0.06703145 -0.1332336 0.109751575 -0.17709382
0003b0 37 7f b0 bd 35 80 21 bd 96 42 51 bc 90 95 25 be
       -0.08618014 -0.03942891 -0.012772223 -0.16170335
0003c0 a7 9e ea 3c 05 91 a2 3d 16 31 33 be a1 d9 3d bc
       0.028640104 0.079378165 -0.17499194 -0.011587531
0003d0 9e c1 3e be 52 cf 92 bc c0 01 8d bd 51 f3 6d 3e
       -0.18628547 -0.017921124 -0.068850994 0.23237349
0003e0 db 36 d5 3d 1d 3b 69 3d e7 d7 86 bd 94 0f 84 be
       0.104108535 0.05694114 -0.06584149 -0.25793135
0003f0 41 4e 07 be f5 26 2b 3e dd 85 a0 bd 24 6c 16 bd
       -0.13213445 0.1671408 -0.078380324 -0.036724225

fc2.weight f4 [128, 256]
000000 b5 82 3c be a9 47 88 ba f8 bf 4d bd a4 56 13 be
       -0.18409236 -0.0010397333 -0.050231904 -0.1438852
000010 98 eb c4 bd 06 57 e4 3c d9 94 4f bd 95 b6 41 bb
       -0.096152484 0.027873527 -0.05067906 -0.002955829
000020 96 c5 09 3d ea 53 a5 3d f8 5b 85 3b 4d b6 e4 bd
       0.0336357 0.08072646 0.0040698014 -0.111675836
000030 b4 be e5 bc 91 d9 91 bc e8 35 71 3c 37 47 20 bd
       -0.028045036 -0.017803939 0.014722325 -0.039130416
000040 9a 4c 06 be 7b 9a 73 bb 48 7e b9 bd 90 20 a6 bd
       -0.13115159 -0.0037170935 -0.09057289 -0.081116796
000050 bd 30 02 be 8c 11 07 bd eb 8d 8a bd 00 95 73 bd
       -0.12713905 -0.03297572 -0.0676535 -0.05946827
000060 fe 30 1d bd 38 7e 1e 3d 63 19 90 3d 2d 6b e9 bd
       -0.0383768 0.03869459 0.07036092 -0.11397395
000070 09 3e 5a bd cc 6b 13 be 88 8a 3d bd bd 48 57 bd
       -0.053281818 -0.1439659 -0.04627469 -0.052559603
000080 0b 3f 24 3d 1f 82 50 be e8 f1 1e 3e 62 94 17 bd
       0.040099185 -0.20362137 0.15521967 -0.037006743
000090 ac 3a 62 bd 5b f5 4f bd bf 34 44 3e 82 f5 79 bd
       -0.055231735 -0.0507711 0.19160746 -0.06102515
0000a0 c3 e7 f8 3c 2f a4 98 bd 88 6a 4d bd 2b 58 f1 bd
       0.03038395 -0.074531905 -0.050150424 -0.11784395
0000b0 70 71 00 3d 2f fb b8 3b 40 91 38 bd ba b5 0a 3c
       0.031358182 0.005645178 -0.045060396 0.008466179
0000c0 89 fc 5d bd fb e9 dd bc e7 03 98 bd 6e 15 04 bd
       -0.054195914 -0.02708911 -0.07422619 -0.032247
0000d0 9c 46 21 3d 1c 2a f7 bc 39 98 b9 bd 50 18 5f bd
       0.03937398 -0.030171447 -0.09062237 -0.054466546
0000e0 d8 be e6 bd 20 50 c2 bd 7f 40 b6 bd 09 57 c4 3c
       -0.11266869 -0.09487939 -0.088990204 0.023967283
0000f0 bf 7c 9f bb 12 a7 ba bd 15 24 a4 3c eb ec eb bd
       -0.004867166 -0.091138974 0.020036737 -0.11519798
000100 4c 75 30 3a e4 74 23 bd ce 6f 2f 3d 7f 7c 6a bc
       0.0006731346 -0.039906397 0.042831235 -0.014311909
000110 60 b7 b5 bc 03 51 05 be 3e c0 af 3d bd 7a 49 bd
       -0.022182167 -0.13019185 0.08581589 -0.049189318
000120 38 fa 19 be d9 70 39 bc e3 14 40 be 5e f3 16 3c
       -0.15036857 -0.011318409 -0.18757968 0.009213297
000130 0e 94 f2 bd a0 60 10 bd a5 e1 63 bd 78 8c 21 bd
       -0.118446454 -0.0352484 -0.055635113 -0.039440602
000140 9f cf a4 3d 5f 5e 51 be 84 60 7b bd 7c 54 99 bd
       0.08047413 -0.20446156 -0.06137134 -0.07486817
000150 7c 3a 01 bd 20 63 f6 bc 2e 3c 01 be db ec 45 3a
       -0.031549916 -0.030076563 -0.12620613 0.0007550248
000160 1a c1 11 bc c4 d2 83 3b 1b 31 96 bc 70 4d 5c 3c
       -0.008896137 0.004022928 -0.018333962 0.013446197
000170 82 57 db bd d7 0f a8 3c a7 ee e2 bd ad 9b 24 be
       -0.1071005 0.020515366 -0.110806756 -0.1607501
000180 cf 14 22 3c 0a c9 49 bd 7f 4c 75 bc 3d 44 f0 bd
       0.0098926565 -0.04926399 -0.014971851 -0.117317654
000190 d3 c7 43 3d f9 46 23 be 88 f7 f3 bd 80 d7 97 bc
       0.04779799 -0.15945043 -0.11912447 -0.018535376
0001a0 68 fc e3 bc e4 0b 0f be a9 ed 4e bd b1 c3 93 bc
       -0.027830318 -0.1396938 -0.05051962 -0.018037649
0001b0 8e f1 89 bd 63 7a d5 bd a9 b1 03 be b8 ab c5 3d
       -0.06735526 -0.10423734 -0.1286074 0.096518934
0001c0 cb e6 df 3c 98 f8 26 3c 16 d0 e0 bc 81 b8 62 bd
       0.02733173 0.010191105 -0.027442973 -0.055351738
0001d0 4b 52 1f be 91 c7 98 3c 89 b2 c1 bd f5 c3 49 bd
       -0.15558736 0.018649848 -0.09457881 -0.049259145
0001e0 2e ac 83 bd b7 92 2a be 67 e0 8f bd cd b2 ac bd
       -0.06429325 -0.1665753 -0.07025223 -0.08432541
0001f0 db ba fc bd 2c ae a5 3c a1 8c f2 bc b4 86 b4 3a
       -0.12340327 0.020224653 -0.029608073 0.0013773055
000200 d0 d5 b1 bc 39 46 36 bd de 08 e7 bd b0 21 b4 bd
       -0.021708399 -0.044500563 -0.11280988 -0.08795488
000210 ac a3 f9 bd a4 2d 7e bd f7 d2 66 3d 24 96 cd bc
       -0.12189421 -0.062055245 0.056353536 -0.025096007
000220 1f 4e cc bd a1 53 4d bd 42 e3 1c 3c 31 39 2d 3d
       -0.09975838 -0.050128583 0.009575667 0.04229087
000230 ec 59 0a be 9c 51 ee bd 4d 37 24 3d 7a 6a 0b 3d
       -0.13510865 -0.116366595 0.0400918 0.03403709
000240 73 7d 09 bc 54 41 cf bc c1 4d 56 3d 08 f9 9a 3a
       -0.008391726 -0.025299706 0.052320246 0.0011823485
000250 7e 7b 8e bd fe 8d ad 3d 2a 1f 2d bd 9d b5 a6 bd
       -0.06957148 0.084743485 -0.04226605 -0.08140109
000260 58 fb 68 bd d2 42 0d bd 54 08 d7 bd 3f bb ab 3c
       -0.056880325 -0.034487553 -0.10499635 0.02096331
000270 1c 97 41 bc c3 74 05 be 23 01 09 3c 7e 00 86 bd
       -0.011815812 -0.13032822 0.008362087 -0.065430626
000280 1b 8a 9b bc 24 cf 10 bd a2 9d 26 bd 72 14 59 bd
       -0.018986752 -0.035353795 -0.040677674 -0.052998014
000290 75 19 a5 bd 7e d7 43 bd 81 71 2c bd a0 91 88 bc
       -0.08061496 -0.04781293 -0.042100433 -0.016671002
0002a0 b3 af 01 be 35 71 16 be 66 69 92 bd e5 29 8c bd
       -0.1266468 -0.14691623 -0.071490094 -0.06843928
0002b0 b9 73 f2 bd 49 c9 8c bd fd 1f 4b bd b3 cc b4 bc
       -0.118384786 -0.068743296 -0.049591053 -0.022070264
0002c0 4c f8 fc bd 00 da 1a 3d bc 2c 44 3c 6a d3 8c bc
       -0.12352046 0.037805557 0.011973556 -0.017190654
0002d0 9c c4 d1 3c 8b 86 fe 3b 3b 5c 0e be 7e 19 aa bc
       0.025606446 0.0077675036 -0.1390237 -0.020764109
0002e0 d0 ed 66 bd c0 84 2e bd 19 94 d1 3d 5a bf b0 bc
       -0.05637914 -0.04260707 0.102333255 -0.021575619
0002f0 96 a8 ba bd 70 78 f7 bb e4 24 fb bc ca 2c 13 3d
       -0.091141865 -0.007552199 -0.03065724 0.035931386
000300 0f f7 18 be b1 46 1a 3d 7b 08 90 bc 2b 7e ac bc
       -0.14937995 0.037665073 -0.017582169 -0.021056255
000310 08 d8 9d bd 71 d4 24 bd 94 b7 94 bd ac 16 c8 bd
       -0.0770722 -0.040241662 -0.07261577 -0.09769949
000320 00 76 83 bd 3e e5 e6 bc 4f e1 be bd 4c 1b b1 bc
       -0.06418991 -0.028185483 -0.09320318 -0.021619461
000330 63 0b a4 bd 9e 41 31 bd ce 03 25 bd e3 5f 66 bd
       -0.08009984 -0.043275468 -0.04028683 -0.05624379
000340 73 a4 93 bd e2 5c 7c bd 7f c6 98 3c 11 1c c9 bd
       -0.072091006 -0.061612017 0.018649338 -0.09819806
000350 9d 05 c5 3c 92 c5 c0 bc da db c0 bd 2f df 23 be
       0.024050528 -0.023531709 -0.09416933 -0.16003107
000360 c0 39 73 3c db 73 92 3a 13 fc 0a be e2 d2 10 be
       0.014845312 0.0011173444 -0.13572721 -0.14142945
000370 95 3d a1 bd 48 70 33 be 12 5f 00 be 6d 4a dd 3c
       -0.07873074 -0.175233 -0.12536266 0.027013028
000380 49 d6 0e 3d af 2a 56 bd cd dd c2 bd 6a b4 65 bd
       0.034872327 -0.0522868 -0.095149614 -0.05608026
000390 b6 5d 50 3d 97 32 f5 3b d0 5b 90 3b ef f8 6e bd
       0.05087062 0.0074828374 0.004405476 -0.05834287
0003a0 09 5e 33 3c 61 13 13 bd aa a3 9c bd 81 00 ba 3c
       0.010947713 -0.035907153 -0.07648404 0.022705318
0003b0 fe 6f c7 bd 86 c7 97 bd 31 3c 0f 3d 8b 85 78 bd
       -0.09738158 -0.07411103 0.034969512 -0.06067423
0003c0 ad 82 73 bd b1 e5 35 be 33 d4 9c bc 51 1a b3 bd
       -0.059450794 -0.17763402 -0.019144153 -0.08745254
0003d0 dc 64 8d bc 05 09 bf bd ae 90 03 bc 07 e0 93 bc
       -0.017260008 -0.09327892 -0.0080301 -0.01805116
0003e0 39 2d fe 3c 69 8d c0 bd cf 43 b3 bc e0 60 34 be
       0.031027423 -0.09401972 -0.02188292 -0.1761508
0003f0 40 ff 7b bc 45 a3 e8 bd 9f d9 fd 3b 1b 18 19 be
       -0.015380681 -0.11359266 0.0077468897 -0.14950602

fc2.bias f4 [128]
000000 b0 4b cb bd 03 f5 3b 3d ed 78 b8 bd 9d 82 85 bc
       -0.099265456 0.04588796 -0.0900744 -0.016297633
000010 e7 e1 ab bd 84 db 89 bd b5 42 1c bd 61 8b cd bc
       -0.08392697 -0.067313224 -0.038149554 -0.025090875
000020 8b db ba 3c d2 76 2d bd 14 c0 05 bd 2c 6f 29 3d
       0.022809764 -0.042349644 -0.032653883 0.041365787
000030 d7 a3 a6 bd 85 f8 4f bc d3 9b bc 3d aa 47 83 bc
       -0.08136719 -0.012693529 0.092094086 -0.016025383
000040 e5 02 0e 3c 46 8e 0d bd 57 b7 9f 3b 84 9b eb bd
       0.008667682 -0.03455951 0.0048741507 -0.115042716
000050 78 ed 10 3d e8 a0 a0 bc aa 90 91 3b 44 5e c9 3c
       0.035382718 -0.019607976 0.004442294 0.024581082
000060 3b 09 2c bd 5b c2 53 3b 09 44 c9 3e 98 23 c0 3b
       -0.04200099 0.003231189 0.3930972 0.005863618
000070 a9 9d 6f bd e0 1d 21 bd dc c5 5b bd 71 58 cc bd
       -0.058499966 -0.03933513 -0.05365549 -0.09977806
000080 fd e2 c3 3c 9b ce 9a bd 32 52 4d 3c 67 a0 90 bd
       0.023911947 -0.07558938 0.012531804 -0.07061844
000090 61 46 1e 3d 7e 4b 2f bd 21 bb 39 3b e7 77 fd 3c
       0.038641337 -0.042796604 0.0028340297 0.030940963
0000a0 54 d7 0f bd 50 7f 63 3d 52 fe 60 3d 14 05 9a bd
       -0.035117462 0.055541337 0.05493004 -0.075205
0000b0 36 8f 35 bd 3b 2c db bc a3 d3 42 3d 88 b5 cd bc
       -0.04432603 -0.02675449 0.047565114 -0.025110975
0000c0 90 1a e4 3d 6a 9c 20 3d d4 19 00 be f9 a7 d3 bd
       0.11137879 0.039211668 -0.12509853 -0.103347726
0000d0 96 82 2e 3d 88 15 2d 3d d7 e5 12 bc b5 eb 11 3d
       0.042605005 0.042256862 -0.008965931 0.03562518
0000e0 07 ed 3c 3d 32 ef 8e bd 59 86 07 3e 19 0d e2 3d
       0.046124484 -0.06979217 0.13234843 0.110376544
0000f0 5f 36 2c bd 23 0f c6 bd 20 43 fc bc a9 6f 8a bd
       -0.04204404 -0.09670856 -0.030793726 -0.06759579
000100 db 90 0b 3c 8a 12 2d 3e f0 b8 1a 3d fb fb 16 bd
       0.008518423 0.16901603 0.037774026 -0.0368614
000110 0b b8 e8 3c b3 ec 50 bd 85 07 01 3d a2 03 99 bd
       0.028408071 -0.051006984 0.03150131 -0.07471396
000120 bd 8d 01 3d bd a4 6e 3d ff b7 f1 bb cf 61 1d bd
       0.031629313 0.058262575 -0.0073766704 -0.038423356
000130 67 37 05 3c 75 40 4b bd 36 fb 23 bd af a5 93 3c
       0.008130885 -0.049622018 -0.040034495 0.01802334
000140 10 70 ca bc 50 de f1 bc 6b ac ce bd d8 c1 ab bc
       -0.024711639 -0.029524952 -0.1009148 -0.020966455
000150 e2 ad f1 3e 1e 6a 29 3d 8f cf 3c bb 12 0d 78 3d
       0.47202975 0.041360967 -0.0028810238 0.06055934
000160 d1 68 d3 3c 24 23 d2 3d 3a eb dd 3e be 3d 36 3d
       0.025806816 0.10260609 0.43343526 0.044492476
000170 f9 39 83 3c b1 c8 e7 bc 3d ca 10 bd d3 ab cf 3b
       0.016018854 -0.02829394 -0.03534912 0.0063376217
000180 f8 17 5d 3d 44 ec 58 3d 3e 8b 04 b8 45 14 6a bd
       0.053977937 0.052959695 -3.1600932e-05 -0.057148237
000190 17 0e bd bd e3 18 cb 3d e2 dd 6b 3c 9c e8 4e 3d
       -0.09231203 0.09916856 0.014396163 0.050514802
0001a0 42 02 12 3d 58 79 a3 bd c3 ac 07 3c a4 53 dc 3c
       0.035646684 -0.07982129 0.008280936 0.026895352
0001b0 73 f6 6b bc 40 9f 8b 3d 0e a0 44 bc 2f cf 29 3d
       -0.01440202 0.06817484 -0.012001051 0.04145735
0001c0 81 98 11 3e f5 65 64 bc fb 80 72 3e f3 0b e2 bd
       0.14218332 -0.013940324 0.23682015 -0.110374354
0001d0 02 47 70 bd e0 14 8c bd 0c 0f 42 3d dc 6f cb bd
       -0.05866147 -0.06839919 0.04737763 -0.09933445
0001e0 ea 02 45 3c 96 4a 02 3d 54 0d 8f 3b bc 7e 84 bc
       0.012024621 0.031809412 0.0043656025 -0.016173713
0001f0 83 9b ef 3d 4e ef 82 bc 0b e3 a8 bd 5d a0 dc bb
       0.116995834 -0.01598325 -0.0824643 -0.006732984

fc3.weight f4 [4, 128]
000000 ee 6d 80 3d e5 81 21 3d 2a cf bc 3d f5 fa 34 3d
       0.062709674 0.039430518 0.09219201 0.044184644
000010 de 02 ba 3b 81 99 22 be 5d 83 04 3e 3a 04 dd 3c
       0.0056766113 -0.1587887 0.12940736 0.026979554
000020 94 a4 99 3d 82 3e 99 be 61 0d 18 be 52 57 36 3e
       0.07502094 -0.29930502 -0.14848854 0.17806748
000030 9a c4 59 bd 24 7f 1a 3e 63 59 76 3d be a0 87 3d
       -0.05316601 0.15087563 0.06014384 0.06622456
000040 e5 5f a2 3d f8 7d 85 3c 3e db 85 3c 3f ae d8 bc
       0.07928447 0.016295418 0.016339894 -0.026450275
000050 a4 53 a8 be 1a dd c4 3d 47 d1 57 3e ca b3 a5 be
       -0.32876313 0.09612484 0.21075927 -0.3236373
000060 f5 78 19 3d c1 24 7c be a5 ea a7 3d 5a 0d 84 3e
       0.03746887 -0.24623396 0.08199052 0.25791436
000070 1b a1 0a 3d 24 de 95 bd ca bb 82 3d 81 3c af be
       0.03384505 -0.073177606 0.06383474 -0.34225848
000080 79 38 c3 bc c1 13 94 be af 72 43 3e 5e ff 8f 3d
       -0.02383064 -0.2892132 0.19086717 0.07031129
000090 5c 9a 00 3e c6 da 9d be 9a da a7 be 2c b3 84 bc
       0.12558883 -0.30830973 -0.32783967 -0.016198717
0000a0 de b8 be be b2 5a d1 3d 90 02 81 3e 05 e5 fd bd
       -0.37250417 0.10222377 0.25197268 -0.12397198
0000b0 ae b2 80 3b 33 ce 7d 3c 49 ed 14 be 00 00 99 3e
       0.0039275503 0.015491056 -0.14543642 0.29882812
0000c0 ee 3e 8c 3d bc 2e 92 3e 9f 1d 59 bd 3d 09 2b be
       0.068479404 0.2855128 -0.053006765 -0.16702743
0000d0 55 c6 6e 3e 8a e9 e6 3d f7 14 e4 3b 8c fc f6 3d
       0.23317845 0.11275013 0.006960507 0.12059888
0000e0 7b 69 72 3d 90 8f ef 3d ce ce 83 3e 76 e8 57 3d
       0.059182625 0.11697304 0.25743717 0.052711926
0000f0 24 73 f9 bd 99 83 bd bb 1e 3a 34 bb 40 bc 15 bd
       -0.121801645 -0.00578351 -0.002750046 -0.036556482
000100 ca 81 6f be b1 b6 a9 3d 28 8c 01 3e 5e 9b aa 3e
       -0.23389354 0.08286799 0.12651122 0.3332166
000110 76 8a 55 3e 6f 1c 95 bd c3 52 23 3c 86 3c 86 bd
       0.208536 -0.07280814 0.009968462 -0.06554513
000120 fa a4 be 3b 33 15 c5 3c da ae eb bb a1 cd 70 3d
       0.0058180066 0.02405796 -0.007192475 0.058789853
000130 b4 73 4a 3e 47 00 29 3d 13 3e 9d bd 11 44 ea 3d
       0.197707 0.04126003 -0.07677855 0.11438764
000140 3a 05 8f 3e ea 0d d3 3b 45 30 df 3d e0 1a a1 bc
       0.27933675 0.0064408677 0.108978786 -0.019666135
000150 75 6b 24 3e 22 74 25 3e 35 24 99 3d 3f a6 53 3e
       0.16056617 0.16157582 0.07477609 0.20668887
000160 e4 70 34 3d 66 dc c8 3d 51 7a 0b 3e c5 47 b6 bc
       0.044052973 0.09807663 0.13620879 -0.02225102
000170 37 32 82 3d 0b cd c3 bd ef 2c cb 3d 2b 17 94 3e
       0.06357234 -0.09560593 0.0992068 0.28923926
000180 a2 b4 b0 3c 13 4c 04 3e 1c b1 7f 3d aa 5c 2e bd
       0.021570507 0.12919645 0.062424764 -0.04256884
000190 84 ec c5 bd 18 3c 47 3e 70 56 4f 3a 44 2e 7e 3d
       -0.096642524 0.19456518 0.00079093035 0.06205584
0001a0 6a 33 35 3d c3 f4 06 3d 92 64 e9 3d df 0c de 3d
       0.044238485 0.032948267 0.113961354 0.10842299
0001b0 09 33 ed 3d 93 70 47 3e d5 6a 31 be 7a 4e 87 3e
       0.11582 0.19476537 -0.1732591 0.2642706
0001c0 c7 43 b6 bb ff 31 e7 bd 6c 09 17 3e e2 79 59 bc
       -0.005562279 -0.11288833 0.14749688 -0.013273688
0001d0 d9 66 25 3e 37 8a 86 3e ad 17 55 bd c3 7e 86 3c
       0.16152515 0.26277325 -0.052024532 0.016417867
0001e0 f4 16 ac be e8 ec 84 3d ba ba 87 be 2c 35 9c be
       -0.33611262 0.06490499 -0.2650965 -0.30509317
0001f0 87 d2 c7 3d 87 1b b9 3d 09 ef 24 3e d1 df 09 3e
       0.09756952 0.090384535 0.1610681 0.13464285
000200 a2 99 1e 3e 5f cb d2 3e 31 e5 9f bd b7 22 42 3e
       0.15488294 0.41170785 -0.07807387 0.18958555
000210 e2 e1 ca bd 01 64 de 3d bb 6f 82 3d 35 15 56 3d
       -0.09906365 0.10858918 0.06368967 0.05226632
000220 56 5f e1 3d de fc 82 be 62 20 a5 be 4f 29 15 3e
       0.11004512 -0.25583547 -0.3225127 0.14566539
000230 5b c5 06 bd ec f5 9d 3e 99 5a 00 3e 4e 49 a7 bc
       -0.032903057 0.30851686 0.1253456 -0.020420697
000240 2f 5e af bc 61 0a bc 3d 97 be c2 be e0 be 38 be
       -0.021407215 0.09181667 -0.38036034 -0.18041563
000250 37 c8 41 bc 94 be 78 bd fb d8 b6 3e dc 7f 39 be
       -0.01182752 -0.060728624 0.35712418 -0.1811518
000260 f9 f6 5d 3d b2 38 85 3b fd 89 27 3e f2 5a a1 3d
       0.05419061 0.0040655965 0.16361232 0.078786746
000270 41 90 8d 3c e9 94 5d b9 3a 6f 73 3d e0 07 9e bd
       0.0172807 -0.00021131676 0.059432246 -0.07716346
000280 74 b1 d6 3d d8 bc 07 be 81 82 03 3e bb ff 9e bc
       0.10483065 -0.13255632 0.12842752 -0.019409051
000290 a2 48 25 be a6 77 1d 3d 8c 10 2e 3d bb 92 95 be
       -0.16140988 0.038444184 0.04249625 -0.2921351
0002a0 66 96 f1 3d 95 d4 1f 3e 5a aa 6f 3e 0e 8b 9d bc
       0.11796264 0.15608437 0.23404828 -0.019231346
0002b0 a3 98 07 3e 5d a1 d8 bd 11 46 cb 3d ea 67 0b 3f
       0.1324182 -0.105776526 0.099254735 0.54455435
0002c0 3f 12 83 3d 5f be 9e 3e 94 c0 42 bd 8c 30 21 be
       0.063999645 0.31004617 -0.047546938 -0.15741175
0002d0 10 02 11 3e 25 fe 8d 3d 44 49 90 bc c7 c7 69 3e
       0.14160943 0.0693324 -0.01761306 0.22830115
0002e0 95 ce 04 3e 3a fb c9 3d b2 58 43 3e ad 9d e6 3c
       0.1296943 0.09862371 0.19076803 0.028151358
0002f0 9e 46 91 bd 24 13 e0 3d cd 5e 0c be 90 1f 7d bd
       -0.07093547 0.10941151 -0.13708039 -0.06179768
000300 99 a8 b0 be cc 0f 8b 3d 65 84 76 3e 9a 89 90 3e
       -0.3450363 0.067901224 0.24073942 0.28229982
000310 09 3d ad 3e 73 49 8a bd 5d 9d f9 3d 17 cc 96 3e
       0.3383563 -0.067522906 0.12188218 0.29452583
000320 9d 58 4a 3e 2a 4d ac 3d bc 3d 01 3e 51 c2 d6 3d
       0.19760366 0.084131554 0.12621206 0.10486282
000330 04 a3 47 3e d9 24 33 3e 4d 3e fd bc df f7 ce 3d
       0.1949578 0.17494525 -0.030913496 0.101058714
000340 59 a9 0a 3e 5a 12 5d 3d 35 bb 40 3d 24 ec c1 3d
       0.13541164 0.05397258 0.047053535 0.094688684
000350 c5 5d fd 3d 9a d9 38 3e 8f 00 21 bd 47 33 27 3e
       0.12371401 0.18051758 -0.039307173 0.16328155
000360 dd 28 66 bd ac 7a bc 3d d2 db 7a 3d c5 a0 63 bd
       -0.056191314 0.09203085 0.061244793 -0.055573244
000370 6b 4f 27 3e 3a 24 a3 bd 86 db 4f 3e cd 90 c2 bc
       0.1633889 -0.07965894 0.20298585 -0.023750687
000380 d9 aa ea 3d f5 02 1c 3e 1c 3e 19 3e 4c c8 c7 3c
       0.11458368 0.15235503 0.14965099 0.024387501
000390 57 70 5b 3e 19 68 3e 3e 77 33 bf 3e 29 8c 36 be
       0.21429573 0.18594398 0.37343952 -0.17826904
0003a0 00 cb a3 3d a0 0d 0c 3e c6 59 81 3d 6c 45 0a 3e
       0.079977036 0.13677073 0.06315951 0.13503045
0003b0 76 2b 59 3e ea 3a 22 3e 6e 3e 7f bd c8 0e 75 3e
       0.21207985 0.15842786 -0.062315397 0.2393142
0003c0 ac dc 04 3d c7 a2 38 bd 81 54 f3 3d 3c f7 ef 3d
       0.03243701 -0.04507711 0.11881352 0.11717078
0003d0 a6 ca 0c 3e 9c e6 bd bd 01 48 6d bd 0d 20 f3 3b
       0.13749179 -0.09272501 -0.057929996 0.0074195922
0003e0 bb d3 a2 be 4b 93 83 3c 62 48 31 3e 89 45 9b bb
       -0.31802163 0.016061446 0.17312768 -0.004738514
0003f0 aa bd 00 3e 68 ff a2 3d 54 78 8d 3e 1a 2c 79 be
       0.12572351 0.07958871 0.27630866 -0.2433323

fc3.bias f4 [4]
000000 ba c7 85 3e f2 f3 8d 3e 93 9b 9a 3e 58 d4 95 3e
       0.26128942 0.27725178 0.3019682 0.29263568
